assets/converted_model.tflite (tflite, 52100 bytes, 5 tensors)

model_3/lstm_2/Read_2/ReadVariableOp f4 [200]
000000 30 6d 14 3e 21 c0 3a 3e 7f fc 2e 3d 19 a0 90 3e
       0.14494777 0.18237354 0.042721268 0.28247145
000010 53 5b d7 3c 88 25 86 3d 3e 12 8c 3d e1 c3 da 3e
       0.026288664 0.06550127 0.06839417 0.4272757
000020 2c 33 d6 3c 94 36 6c 3e ba c5 67 3e 5f 17 36 3d
       0.026147448 0.23067695 0.2263402 0.044455882
000030 0c ff bd 3e b2 38 fe 3d 14 39 48 3e 55 48 20 3e
       0.37108648 0.124131575 0.19553024 0.15652592
000040 37 56 3d 3e 9b 80 65 3e 19 14 98 3d c5 22 00 3d
       0.1848992 0.2241234 0.07425708 0.03128316
000050 c0 35 07 3e 9b f0 69 3e 77 ad b2 3e 14 ab 8a 3d
       0.13204098 0.2284569 0.34897968 0.06770912
000060 ac 73 30 3e ca 6b 1c 3d 64 7d 12 3e e7 f2 d7 3c
       0.17231625 0.038188733 0.14305645 0.026360942
000070 52 91 e5 3d b3 fa 11 3d a3 23 33 3d 32 5c 47 3e
       0.11209358 0.035639476 0.043735158 0.19468763
000080 a4 12 1b 3d 95 fe 0b 3e 81 5d ff 3d c2 ad 6b 3e
       0.037859574 0.13671334 0.12469006 0.23015502
000090 07 73 ac 3c 95 0f 49 3d bc 1c b0 3e 21 b7 09 3d
       0.021050943 0.049087126 0.34396923 0.03362191
0000a0 e6 bc 40 3d 97 eb 16 3d 54 64 38 3d 2b 68 c1 3d
       0.047055148 0.03684577 0.045017555 0.094436966
0000b0 b2 97 62 3e d4 38 ac 3e b1 b1 dd 3d 9d 1f 7c 3e
       0.2212818 0.33637106 0.108249076 0.24621435
0000c0 22 11 27 3e 5c 15 07 3e 00 00 80 3f 00 00 80 3f
       0.1631513 0.13191742 1.0 1.0
0000d0 00 00 80 3f 00 00 80 3f 00 00 80 3f 00 00 80 3f
       1.0 1.0 1.0 1.0
0000e0 00 00 80 3f 00 00 80 3f 00 00 80 3f 00 00 80 3f
       1.0 1.0 1.0 1.0
0000f0 00 00 80 3f 00 00 80 3f 00 00 80 3f 00 00 80 3f
       1.0 1.0 1.0 1.0
000100 00 00 80 3f 00 00 80 3f 00 00 80 3f 00 00 80 3f
       1.0 1.0 1.0 1.0
000110 00 00 80 3f 00 00 80 3f 00 00 80 3f 00 00 80 3f
       1.0 1.0 1.0 1.0
000120 00 00 80 3f 00 00 80 3f 00 00 80 3f 00 00 80 3f
       1.0 1.0 1.0 1.0
000130 00 00 80 3f 00 00 80 3f 00 00 80 3f 00 00 80 3f
       1.0 1.0 1.0 1.0
000140 00 00 80 3f 00 00 80 3f 00 00 80 3f 00 00 80 3f
       1.0 1.0 1.0 1.0
000150 00 00 80 3f 00 00 80 3f 00 00 80 3f 00 00 80 3f
       1.0 1.0 1.0 1.0
000160 00 00 80 3f 00 00 80 3f 00 00 80 3f 00 00 80 3f
       1.0 1.0 1.0 1.0
000170 00 00 80 3f 00 00 80 3f 00 00 80 3f 00 00 80 3f
       1.0 1.0 1.0 1.0
000180 00 00 80 3f 00 00 80 3f 00 00 80 3f 00 00 80 3f
       1.0 1.0 1.0 1.0
000190 dd 54 d0 bd cb b2 bb 3d 4e d3 f1 3d 8b 56 df bd
       -0.101724364 0.091649614 0.11807881 -0.10905179
0001a0 44 9d cf bd f7 dd c3 3d 4d e7 c1 bd e9 a3 69 be
       -0.10137418 0.09563821 -0.09467945 -0.22816433
0001b0 3b 57 cb 3d 1a 61 b7 3d e0 33 ee 3d b0 92 ba 3d
       0.09928747 0.089540675 0.11630988 0.0911001
0001c0 2b a3 61 be be a4 ac 3d 2e 08 d0 bd d7 c3 dd 3d
       -0.220349 0.084298596 -0.1015781 0.10828369
0001d0 46 fd d8 bd 23 ab 3c be 30 0d c5 bd f0 3f ba bd
       -0.10595183 -0.18424658 -0.09621656 -0.09094226
0001e0 d1 fd a9 bd 50 d2 3e 3e 78 29 1e 3e 0e 4b c4 3d
       -0.08300365 0.18634915 0.15445507 0.09584628
0001f0 47 00 af bd e9 a1 ca 3d 27 ba ac bd b3 7d c8 3d
       -0.08544975 0.09894163 -0.08433943 0.097896
000200 07 99 d5 3d 3f a8 c7 3d 82 59 ce 3d fc a0 f6 bd
       0.10429578 0.09748887 0.10075666 -0.12042424
000210 22 66 c5 3d 00 2c c9 3d 9a d6 a5 3d a8 84 e8 bd
       0.09638621 0.098228455 0.080975726 -0.11353427
000220 f9 eb bc 3d 10 d9 bf 3d f3 a4 25 be 37 df db bd
       0.09224696 0.09367573 -0.16176204 -0.10735934
000230 e5 9d cd 3d f3 a7 b2 bd 2d c7 c1 3d ff 20 01 be
       0.100398816 -0.0872344 0.09461818 -0.12610243
000240 61 ad ef 3d fd 8d 11 3e 63 7f c8 3d 6e 98 e2 bd
       0.11702991 0.1421432 0.09789922 -0.1106423
000250 cc ab b6 bd af 64 a7 bd d0 19 1a 3e 1e 62 3c 3e
       -0.089194864 -0.08173501 0.15048909 0.18396804
000260 b1 26 54 3d cb da 90 3e 17 c8 2e 3d 86 66 71 3d
       0.05179471 0.28291926 0.04267129 0.058935665
000270 95 bc 4f 3d 93 89 da 3e 61 86 1a 3d e7 e9 6b 3e
       0.050716955 0.42683086 0.03772581 0.23038445
000280 ea 19 6c 3e bb db 10 3d e4 5b bd 3e f1 af f2 3d
       0.2305676 0.0353658 0.3698417 0.118499644
000290 58 a1 41 3e b2 e9 26 3e 08 0b 31 3e d1 f3 64 3e
       0.18909204 0.16300085 0.17289364 0.22358634
0002a0 10 7a 6a 3d 30 a3 bb 3c 96 b4 03 3e ee 8e 63 3e
       0.057245314 0.022904962 0.12861857 0.22222492
0002b0 4e 37 b2 3e 71 f7 73 3d 4c e2 28 3e 6f 12 26 3d
       0.3480782 0.05956215 0.16492575 0.040544923
0002c0 17 90 14 3e f5 57 2f 3d 92 09 c5 3d 80 86 04 3d
       0.14508091 0.04280849 0.09620966 0.03235483
0002d0 f9 c7 38 3d ef 6d 4a 3e eb 5a 96 3c ef dc 0d 3e
       0.045112584 0.19768499 0.0183539 0.1385381
0002e0 8d 10 f4 3d a7 68 68 3e 72 14 1d 3d 40 19 3b 3d
       0.11917219 0.22696172 0.038349576 0.045678377
0002f0 a5 41 b0 3e 13 0c eb 3c 09 54 73 3d 8a 9d 18 3d
       0.34425083 0.02869228 0.059406314 0.037259616
000300 1b 24 87 3d f5 4a d5 3d b5 01 63 3e da b8 ab 3e
       0.065986834 0.104146875 0.2216862 0.33539468
000310 62 0b f6 3d 5e ee 7b 3e 51 34 29 3e c8 b8 08 3e
       0.1201389 0.24602649 0.16523863 0.13351738

model_3/dense_2/MatMul f4 [1, 53]
000000 8a 34 77 be 30 b8 de 3e e6 34 de 3d c2 bf aa be
       -0.24141136 0.434999 0.10849933 -0.33349425
000010 e5 5b 27 be ba 34 b2 3e e5 01 c3 be 52 48 a2 be
       -0.16343649 0.34805852 -0.38087383 -0.316958
000020 a6 f6 75 3e 69 f1 e4 3e b1 c7 b1 3e 46 11 ae 3e
       0.2401987 0.4471543 0.34722665 0.33997554
000030 ae 19 73 be eb ab d1 3e c1 07 fc be 0a 0d b3 3e
       -0.23740265 0.40951476 -0.49224666 0.34970886
000040 f2 dd b8 be 04 8f 0b be 54 82 7b be 7a 2e 95 be
       -0.3610683 -0.13628775 -0.24561435 -0.2913702
000050 12 5b a7 be ad d5 05 3e 06 0c 96 3e 74 4a 8b 3e
       -0.3268667 0.13069792 0.29306048 0.2720524
000060 13 be 8b be 36 73 9f 3e a1 ee 92 be e5 eb 5d 3e
       -0.27293453 0.31142586 -0.28697684 0.21672018
000070 59 f5 4c 3e 09 01 83 3e 34 fc 5a 3e b0 3c 7b be
       0.20015468 0.25586727 0.2138527 -0.24534869
000080 e1 1e 54 3e ec 35 c5 3e 1b 45 cc 3e f6 57 ad be
       0.20714904 0.38517702 0.39896473 -0.3385617
000090 fa 3f b6 3e 2e 91 82 3e 1d 3d 99 be 68 8c c3 bd
       0.35595685 0.25501388 -0.29929438 -0.09548265
0000a0 ab e0 5b 3e c7 1a 88 be 32 66 a1 3e e9 62 da bd
       0.21472423 -0.2658293 0.3152328 -0.10663397
0000b0 7d 10 b0 3e c2 bb 95 3e dd d9 b0 3e b1 84 bb be
       0.3438758 0.2924481 0.34541216 -0.36624673
0000c0 4c 2d b0 be 3f e6 a8 be 91 6d 24 be 76 a8 3f 3e
       -0.3440956 -0.32988164 -0.16057421 0.18716606
0000d0 99 5a 7a 3e
       0.24448623

model_3/lstm_2/Read_2/ReadVariableOp1 f4 [200]
000000 30 6d 14 3e 21 c0 3a 3e 7f fc 2e 3d 19 a0 90 3e
       0.14494777 0.18237354 0.042721268 0.28247145
000010 53 5b d7 3c 88 25 86 3d 3e 12 8c 3d e1 c3 da 3e
       0.026288664 0.06550127 0.06839417 0.4272757
000020 2c 33 d6 3c 94 36 6c 3e ba c5 67 3e 5f 17 36 3d
       0.026147448 0.23067695 0.2263402 0.044455882
000030 0c ff bd 3e b2 38 fe 3d 14 39 48 3e 55 48 20 3e
       0.37108648 0.124131575 0.19553024 0.15652592
000040 37 56 3d 3e 9b 80 65 3e 19 14 98 3d c5 22 00 3d
       0.1848992 0.2241234 0.07425708 0.03128316
000050 c0 35 07 3e 9b f0 69 3e 77 ad b2 3e 14 ab 8a 3d
       0.13204098 0.2284569 0.34897968 0.06770912
000060 ac 73 30 3e ca 6b 1c 3d 64 7d 12 3e e7 f2 d7 3c
       0.17231625 0.038188733 0.14305645 0.026360942
000070 52 91 e5 3d b3 fa 11 3d a3 23 33 3d 32 5c 47 3e
       0.11209358 0.035639476 0.043735158 0.19468763
000080 a4 12 1b 3d 95 fe 0b 3e 81 5d ff 3d c2 ad 6b 3e
       0.037859574 0.13671334 0.12469006 0.23015502
000090 07 73 ac 3c 95 0f 49 3d bc 1c b0 3e 21 b7 09 3d
       0.021050943 0.049087126 0.34396923 0.03362191
0000a0 e6 bc 40 3d 97 eb 16 3d 54 64 38 3d 2b 68 c1 3d
       0.047055148 0.03684577 0.045017555 0.094436966
0000b0 b2 97 62 3e d4 38 ac 3e b1 b1 dd 3d 9d 1f 7c 3e
       0.2212818 0.33637106 0.108249076 0.24621435
0000c0 22 11 27 3e 5c 15 07 3e 00 00 80 3f 00 00 80 3f
       0.1631513 0.13191742 1.0 1.0
0000d0 00 00 80 3f 00 00 80 3f 00 00 80 3f 00 00 80 3f
       1.0 1.0 1.0 1.0
0000e0 00 00 80 3f 00 00 80 3f 00 00 80 3f 00 00 80 3f
       1.0 1.0 1.0 1.0
0000f0 00 00 80 3f 00 00 80 3f 00 00 80 3f 00 00 80 3f
       1.0 1.0 1.0 1.0
000100 00 00 80 3f 00 00 80 3f 00 00 80 3f 00 00 80 3f
       1.0 1.0 1.0 1.0
000110 00 00 80 3f 00 00 80 3f 00 00 80 3f 00 00 80 3f
       1.0 1.0 1.0 1.0
000120 00 00 80 3f 00 00 80 3f 00 00 80 3f 00 00 80 3f
       1.0 1.0 1.0 1.0
000130 00 00 80 3f 00 00 80 3f 00 00 80 3f 00 00 80 3f
       1.0 1.0 1.0 1.0
000140 00 00 80 3f 00 00 80 3f 00 00 80 3f 00 00 80 3f
       1.0 1.0 1.0 1.0
000150 00 00 80 3f 00 00 80 3f 00 00 80 3f 00 00 80 3f
       1.0 1.0 1.0 1.0
000160 00 00 80 3f 00 00 80 3f 00 00 80 3f 00 00 80 3f
       1.0 1.0 1.0 1.0
000170 00 00 80 3f 00 00 80 3f 00 00 80 3f 00 00 80 3f
       1.0 1.0 1.0 1.0
000180 00 00 80 3f 00 00 80 3f 00 00 80 3f 00 00 80 3f
       1.0 1.0 1.0 1.0
000190 dd 54 d0 bd cb b2 bb 3d 4e d3 f1 3d 8b 56 df bd
       -0.101724364 0.091649614 0.11807881 -0.10905179
0001a0 44 9d cf bd f7 dd c3 3d 4d e7 c1 bd e9 a3 69 be
       -0.10137418 0.09563821 -0.09467945 -0.22816433
0001b0 3b 57 cb 3d 1a 61 b7 3d e0 33 ee 3d b0 92 ba 3d
       0.09928747 0.089540675 0.11630988 0.0911001
0001c0 2b a3 61 be be a4 ac 3d 2e 08 d0 bd d7 c3 dd 3d
       -0.220349 0.084298596 -0.1015781 0.10828369
0001d0 46 fd d8 bd 23 ab 3c be 30 0d c5 bd f0 3f ba bd
       -0.10595183 -0.18424658 -0.09621656 -0.09094226
0001e0 d1 fd a9 bd 50 d2 3e 3e 78 29 1e 3e 0e 4b c4 3d
       -0.08300365 0.18634915 0.15445507 0.09584628
0001f0 47 00 af bd e9 a1 ca 3d 27 ba ac bd b3 7d c8 3d
       -0.08544975 0.09894163 -0.08433943 0.097896
000200 07 99 d5 3d 3f a8 c7 3d 82 59 ce 3d fc a0 f6 bd
       0.10429578 0.09748887 0.10075666 -0.12042424
000210 22 66 c5 3d 00 2c c9 3d 9a d6 a5 3d a8 84 e8 bd
       0.09638621 0.098228455 0.080975726 -0.11353427
000220 f9 eb bc 3d 10 d9 bf 3d f3 a4 25 be 37 df db bd
       0.09224696 0.09367573 -0.16176204 -0.10735934
000230 e5 9d cd 3d f3 a7 b2 bd 2d c7 c1 3d ff 20 01 be
       0.100398816 -0.0872344 0.09461818 -0.12610243
000240 61 ad ef 3d fd 8d 11 3e 63 7f c8 3d 6e 98 e2 bd
       0.11702991 0.1421432 0.09789922 -0.1106423
000250 cc ab b6 bd af 64 a7 bd d0 19 1a 3e 1e 62 3c 3e
       -0.089194864 -0.08173501 0.15048909 0.18396804
000260 b1 26 54 3d cb da 90 3e 17 c8 2e 3d 86 66 71 3d
       0.05179471 0.28291926 0.04267129 0.058935665
000270 95 bc 4f 3d 93 89 da 3e 61 86 1a 3d e7 e9 6b 3e
       0.050716955 0.42683086 0.03772581 0.23038445
000280 ea 19 6c 3e bb db 10 3d e4 5b bd 3e f1 af f2 3d
       0.2305676 0.0353658 0.3698417 0.118499644
000290 58 a1 41 3e b2 e9 26 3e 08 0b 31 3e d1 f3 64 3e
       0.18909204 0.16300085 0.17289364 0.22358634
0002a0 10 7a 6a 3d 30 a3 bb 3c 96 b4 03 3e ee 8e 63 3e
       0.057245314 0.022904962 0.12861857 0.22222492
0002b0 4e 37 b2 3e 71 f7 73 3d 4c e2 28 3e 6f 12 26 3d
       0.3480782 0.05956215 0.16492575 0.040544923
0002c0 17 90 14 3e f5 57 2f 3d 92 09 c5 3d 80 86 04 3d
       0.14508091 0.04280849 0.09620966 0.03235483
0002d0 f9 c7 38 3d ef 6d 4a 3e eb 5a 96 3c ef dc 0d 3e
       0.045112584 0.19768499 0.0183539 0.1385381
0002e0 8d 10 f4 3d a7 68 68 3e 72 14 1d 3d 40 19 3b 3d
       0.11917219 0.22696172 0.038349576 0.045678377
0002f0 a5 41 b0 3e 13 0c eb 3c 09 54 73 3d 8a 9d 18 3d
       0.34425083 0.02869228 0.059406314 0.037259616
000300 1b 24 87 3d f5 4a d5 3d b5 01 63 3e da b8 ab 3e
       0.065986834 0.104146875 0.2216862 0.33539468
000310 62 0b f6 3d 5e ee 7b 3e 51 34 29 3e c8 b8 08 3e
       0.1201389 0.24602649 0.16523863 0.13351738

while/MatMul_11 f4 [200, 50]
000000 80 38 36 bc b1 27 8c 3d de 21 d8 bd 64 fc de 3d
       -0.011121869 0.06843508 -0.10553335 0.108879834
000010 81 55 ba bd 40 c8 97 3b 60 f3 f4 3c e1 75 c4 bd
       -0.0909834 0.004632026 0.029901206 -0.09592796
000020 ba 5f bd 3c d8 e3 f1 bc 30 2f 7d bc 34 23 23 bd
       0.023116935 -0.02952759 -0.015453145 -0.039828494
000030 70 f0 d6 bb cd 97 2d bd fe b0 ef bd 58 bc 0d bc
       -0.006559424 -0.042381097 -0.117036805 -0.008650862
000040 0c a3 7d 3d ea 33 88 bd c8 ae de bd e0 db 17 bd
       0.06192307 -0.06650527 -0.10873181 -0.037074924
000050 8a 90 36 3d 4d 71 f6 3d 00 39 58 3b 80 f8 47 3a
       0.044571437 0.12033329 0.003299296 0.0007628277
000060 20 13 fa 3d 56 1e b7 bd d8 9e 92 3b a6 f2 95 3c
       0.12210679 -0.08941333 0.004474502 0.01830418
000070 1e 6d 02 3e 91 15 5e 3c 6c c2 7c bd 95 53 b6 3c
       0.12736937 0.0135549465 -0.061708853 0.022256652
000080 27 6d 25 bd f2 a6 c0 bc 12 20 9f 3d ba b7 00 bd
       -0.0403873 -0.023517106 0.07769789 -0.031425215
000090 a8 c2 17 bc 6c a2 b1 3d cf 65 0d 3c d0 f5 41 3c
       -0.009262718 0.08673558 0.00863023 0.011838391
0000a0 06 7c 72 bd 2e 13 86 bc 28 92 27 3a 98 44 0f 3d
       -0.05920031 -0.016366567 0.00063923234 0.034977525
0000b0 96 25 20 bd f4 e7 bd 3d ce 99 ac bd 2c 91 c7 3c
       -0.039098345 0.09272757 -0.084277734 0.024361216
0000c0 6f 77 01 3e fc f7 6c bc 9c 44 1e 3c 60 52 25 bd
       0.12643217 -0.014463421 0.009659912 -0.040361762
0000d0 bb 6c c2 bd 53 f5 44 bc c4 ee d0 3d a1 fc 7f bc
       -0.09493395 -0.0120213805 0.10201791 -0.015624196
0000e0 51 c9 e4 3b bc 85 0e be 42 c4 16 bd 00 91 5b bd
       0.0069820066 -0.13918203 -0.03680826 -0.05360508
0000f0 83 b6 02 be db b2 0f be 7f b7 ef 3b 22 2e d4 bc
       -0.12764935 -0.14033072 0.0073155756 -0.025900904
000100 e7 3f 87 bd b3 2d 8b 3c 96 4a d6 3c a7 35 f8 bd
       -0.06603985 0.016989565 0.026158612 -0.12119608
000110 71 5c 02 bd bc 72 5c bd 95 f4 30 bd 91 2f f1 3d
       -0.03182644 -0.053820357 -0.043202 0.11776651
000120 3e 28 9c 3d cd 4f e7 bd c6 44 b3 bd fc f4 2d 3d
       0.07624863 -0.11294518 -0.08753352 0.042469963
000130 18 9f 86 3b 1f 75 a7 3d 69 8b ec 3b 0a ec 88 3d
       0.004108321 0.08176636 0.0072187674 0.06685646
000140 b2 f6 1e be b1 d3 12 bd 4b f9 a8 3b 8b 47 e7 3c
       -0.15523794 -0.035846416 0.005156671 0.028232357
000150 60 1b a5 3d 03 a9 5b bc 06 fe 0b 3d 84 e1 d5 bc
       0.08061862 -0.013406995 0.034177803 -0.02610851
000160 a1 f2 4d 3d fc 79 9b 3d 19 4e 07 3d 0d 85 10 bc
       0.050280217 0.07591626 0.033033464 -0.008820784
000170 02 9d 33 be 1a 77 a3 3d fb a1 56 3d 13 7b e5 bd
       -0.17540362 0.07981701 0.05240057 -0.11205115
000180 44 03 45 3d d4 40 be 3d 9a 10 42 3d d6 5e 62 3c
       0.048098817 0.09289709 0.047379114 0.013816556
000190 fd 6a 96 3d 5a 00 0f 3b 60 b6 17 bd 51 ea 03 bd
       0.07344625 0.0021820278 -0.03703916 -0.032205883
0001a0 d5 b5 84 bd ca e7 c2 3d 64 67 8c 3d 0c 5e 25 bd
       -0.06479994 0.095168665 0.06855658 -0.040372893
0001b0 9d 73 a2 3d 12 2b bd 3d 66 80 7f bb 6a da 2e 3b
       0.07932208 0.09236731 -0.0038986444 0.0026680478
0001c0 92 c1 24 3e ae 9a b2 3d b6 c1 e9 bc 4f 21 94 3d
       0.16089466 0.08720909 -0.028534751 0.072329156
0001d0 3c 14 e5 bd 75 60 28 3d 33 5a a4 bd a8 71 66 bd
       -0.111855 0.041107614 -0.08025017 -0.056260735
0001e0 9f 58 8a 3d 17 0c 76 bd d5 00 68 bd 01 b7 0c be
       0.067551844 -0.060070124 -0.05664142 -0.13741685
0001f0 68 a1 45 3d 9a a9 da 3b f6 0a 39 bc 90 a8 4c bd
       0.048249632 0.00667305 -0.011294117 -0.04996544
000200 07 f9 49 3d aa 6b 60 3c a8 73 73 3d e0 13 97 3c
       0.049309757 0.013697544 0.05943647 0.018442094
000210 3e b1 7a 3d af bb dc bc d9 31 34 3e 13 6d ca bc
       0.061204188 -0.026944963 0.1759714 -0.024710214
000220 8e d4 ac bd 14 68 da 3d 67 91 55 3d 9c a4 95 bd
       -0.08438979 0.106643826 0.05214062 -0.07306787
000230 92 38 1d bb 40 ef 7e 3d b0 f2 e1 3d 92 d0 c2 3b
       -0.0023990017 0.062239885 0.11032617 0.0059452737
000240 ce 4e ce 3d 37 ea 33 bd 3e 5f ba 3d 06 f2 03 bd
       0.100736246 -0.043924537 0.09100197 -0.032213233
000250 15 8f 31 bd 4c 9d b9 bd 3e 8d bb bc 2b 6f 76 3d
       -0.043349344 -0.09063205 -0.022894498 0.06016461
000260 d3 a8 c9 bd 80 62 3a bd 5a 3b 12 3d a5 80 2c 3e
       -0.09846654 -0.045504093 0.035701133 0.16845949
000270 8f b8 9b bd 2a a9 d0 3c dc 67 c8 bd f9 ea 98 bd
       -0.07603561 0.025471289 -0.097854346 -0.074666925
000280 14 b2 8b bc 96 ed 62 3b 83 b2 f6 3d 90 80 4c bd
       -0.017052688 0.0034626476 0.12045767 -0.049927294
000290 eb 96 08 be 93 01 81 bd c0 e3 7d 3c 28 34 66 3b
       -0.1333882 -0.062991284 0.015496194 0.0035126302
0002a0 6d 46 2b 3d 44 a3 6b 3c d3 a6 11 3d 74 d6 db bd
       0.04181521 0.014382187 0.035559487 -0.10734263
0002b0 6c ff 05 3d 88 46 3f 3e a0 82 ba 3d 3f 86 03 3d
       0.032714292 0.1867925 0.09106946 0.03211045
0002c0 5c ef bb 3d ba ec 18 3c 84 45 a1 bb 0e 67 bd bd
       0.091765136 0.009333784 -0.004921617 -0.09248172
0002d0 73 2d 11 3d de ae 40 bd 99 aa c7 bb 8a 00 c0 bc
       0.035443734 -0.047041766 -0.006093335 -0.023437757
0002e0 87 ee b4 3d ad dc fa bc 75 9d a2 3d b5 86 29 bd
       0.08834558 -0.030622805 0.07940189 -0.041388232
0002f0 c1 2e 67 bd 98 fa 35 bb 1d fe f9 3d e8 1a 5a 3c
       -0.056441072 -0.0027767774 0.122066714 0.013312079
000300 63 c3 44 bd bf 0c 69 3d 3d 88 c7 3d 2f 01 fc bb
       -0.048037898 0.05689692 0.09742782 -0.007690571
000310 b0 73 ba 3d 81 5d 91 3d 69 bc 08 be a6 d8 c2 3c
       0.09104097 0.070979126 -0.13353123 0.023784947
000320 14 cc 3c 3d 02 dd 41 bd ad ee bf bd 22 eb 53 bd
       0.04609306 -0.04732991 -0.09371696 -0.051737912
000330 00 96 68 bc 3c 6f ef 3b 00 8c 0f 3d 9d 8c 52 3d
       -0.014195919 0.0073069613 0.035045624 0.05140363
000340 e1 05 0e 3d 19 64 5e bd 65 14 00 be 6c a7 25 3c
       0.034673575 -0.05429468 -0.1250778 0.010110717
000350 30 b9 98 bd 9e 4e 23 3b 41 c4 6e bd 54 21 19 3c
       -0.07457197 0.0024918686 -0.05829263 0.009346325
000360 1e ee ad 3b a1 54 c3 bd d2 a1 ad bc 1d b5 c7 3d
       0.005307927 -0.09537626 -0.021195326 0.097513415
000370 eb a6 6d 3d 5d 49 08 bd 56 bb bd 3d 24 38 cf bb
       0.058020514 -0.03327309 0.09264247 -0.006323831
000380 17 eb 8c bd 18 9d a2 3d 10 69 3e 3d 5a 50 d8 bd
       -0.06880777 0.079401195 0.046486914 -0.10562201
000390 00 18 57 bd 1c d8 1c be 72 cb 72 bd 26 0b 04 bd
       -0.052513123 -0.15316814 -0.05927605 -0.032237194
0003a0 10 e6 85 bd 26 72 15 3d dc a3 a9 bb 4c 03 03 3d
       -0.065380216 0.036485814 -0.0051770043 0.031985566
0003b0 96 54 0b 3d 10 f2 40 3c 12 3f 9c 3d 9b 9d e0 3d
       0.034016214 0.011776462 0.07629217 0.10967561
0003c0 b4 9f a7 bb 5f 51 48 bd 57 0e 84 bd 8b ed 95 bd
       -0.0051154736 -0.048905727 -0.064480476 -0.07320698
0003d0 c2 85 8d 3b 92 0d fe bc c8 65 0e 3d 03 0c 69 bd
       0.0043189237 -0.03101233 0.034765035 -0.05689622
0003e0 33 13 d1 3d 00 f9 61 3d 75 34 f4 bd 1c df b7 3b
       0.1020874 0.055169106 -0.11924068 0.0056113135
0003f0 c1 05 d0 bb ba 3d f3 bd a6 d6 fd 3c c0 62 87 3d
       -0.006348342 -0.11877008 0.030986141 0.06610632

while/MatMul f4 [200, 1]
000000 47 0b b7 bd 6e a4 8c 3c 49 29 aa be 6d 0a 4d 3e
       -0.08937698 0.01716825 -0.33234623 0.20023508
000010 91 79 a0 be e2 55 1b be ab c6 82 bd 87 03 d5 3d
       -0.31342748 -0.1516948 -0.06385549 0.104010634
000020 c7 3e a8 be a5 a1 5c 3e 43 05 99 be b0 54 64 bd
       -0.32860395 0.21546037 -0.29886827 -0.055744827
000030 e9 2c a1 bd 13 f5 a4 3d a3 f3 a0 bd 86 77 a5 be
       -0.07869894 0.08054557 -0.0785897 -0.32317752
000040 50 e3 90 bd db 2b 7c be 9e a3 df bc 22 ab 2a bd
       -0.070746064 -0.24626105 -0.027299698 -0.04166711
000050 da 67 3b 3e 62 cc 41 be 88 c2 80 bd 0b d3 d2 bd
       0.18301335 -0.18925622 -0.06287104 -0.102941595
000060 c6 e0 1c 3e ee 4f 95 be 16 e2 8d 3e 74 2d 9f be
       0.1532012 -0.29162544 0.27711552 -0.31089365
000070 72 38 13 bd 43 08 46 be a3 44 7b be 48 80 60 be
       -0.035942502 -0.19339089 -0.24537902 -0.21923935
000080 b6 b9 aa bc 3e 11 2b be 10 a0 34 3e bf fa cb bd
       -0.020840507 -0.16705796 0.17639184 -0.099599354
000090 72 9f 8b be 37 e0 d6 bd 7b fa 66 bd 87 68 0b be
       -0.27270085 -0.10491984 -0.05639122 -0.13614093
0000a0 ee 9e 96 be 95 23 61 bc ef dd 9d be 6a 42 34 be
       -0.2941813 -0.013741394 -0.30833384 -0.1760346
0000b0 c4 36 82 be ad 4e a4 bc 49 35 79 be 42 12 ad bc
       -0.25432408 -0.020057047 -0.24336733 -0.02112687
0000c0 5e 5c 6c 3e 63 9f 96 3e 68 92 15 bd 59 4b bd bd
       0.2308211 0.29418477 -0.036516577 -0.09242887
0000d0 a0 9c dc 3d 4b 1f 89 bd c8 a3 19 3e 7e 57 db bd
       0.10772061 -0.06695422 0.15003884 -0.10710047
0000e0 38 f6 1e 3e 68 a5 2b bd 3e c2 22 be 80 cb 87 3a
       0.15523612 -0.04190579 -0.1589441 0.001036033
0000f0 9e 63 48 bd 96 2c f0 bd e0 bf 00 3c 0e cd 15 3e
       -0.048923127 -0.11727254 0.007858247 0.14629003
000100 25 4a 25 be 70 66 34 3c 4c d7 25 3e 00 a0 8c 38
       -0.16141565 0.011010751 0.1619541 6.7055225e-05
000110 3e e4 00 be e8 70 93 bc 19 44 b8 bd 3c 38 a8 3d
       -0.12587067 -0.017998174 -0.089973636 0.08213851
000120 da 24 01 3e 0c fb 25 bd c0 12 21 bb 8e 94 0c be
       0.12611714 -0.04052262 -0.0024577826 -0.13728544
000130 36 80 4e bd 4f 1a fb bd a0 7f f3 bd 00 76 bc 3b
       -0.05041524 -0.12260877 -0.11889577 0.0057513714
000140 fc 25 25 3e d4 7f a9 3d b0 87 55 bc c0 6e 10 3e
       0.16127771 0.082763344 -0.013032839 0.14104748
000150 8c 5f 29 bd 5c 91 5f bd 06 07 1b be 20 65 fa 3c
       -0.041350886 -0.054581985 -0.15139398 0.030565798
000160 78 98 ac 3d d8 c7 3f 3d 40 19 1a bd 90 f9 f3 3d
       0.084275186 0.046821445 -0.037621737 0.11912835
000170 d8 95 8d 3c 02 3a 14 3e dc d3 d8 3d 30 56 2b bd
       0.017283365 0.14475253 0.10587284 -0.04183024
000180 03 3f e8 bd ff e4 21 be 40 6d 03 3e 1e d4 0d 3e
       -0.113401435 -0.15810011 0.12834644 0.13850448
000190 29 a3 38 3d 57 8c 9c bd 48 1b 04 3e b5 ef 1a 3e
       0.045077477 -0.07643955 0.12901032 0.15130503
0001a0 ea 02 10 be fa 0c 6d 3d 2a e9 7f bd af 47 94 3e
       -0.14063612 0.057873704 -0.062478222 0.2896094
0001b0 73 75 28 3e e2 15 0b be b6 4b 9f bd 62 e1 b9 3d
       0.16451053 -0.13582566 -0.077781126 0.090761915
0001c0 2a db 41 3e b1 8d 4c be 8b 43 81 3d 38 92 b8 bc
       0.1893126 -0.19975926 0.06311711 -0.02253066
0001d0 1a 71 3d 3d ee 03 84 3d 03 72 2f bd ef 5c 09 be
       0.04625044 0.06446062 -0.04283334 -0.13414358
0001e0 43 3c 5a 3e c6 8f 90 bd 6a 3c 41 be 3a fc 45 3d
       0.2131205 -0.070586726 -0.18870702 0.048336245
0001f0 44 5d 58 3e 82 6a 0e 3e 99 e1 59 3e bc 6f 0a 3e
       0.21129328 0.13907817 0.21277465 0.13519186
000200 bb bd fa ba 56 fd 10 3e 6f d0 e1 3d 1d c8 67 3d
       -0.001913003 0.1415914 0.11026084 0.056587327
000210 40 de 1f 3e 7d 4a c7 bc 00 c4 5b be 86 81 ad 3d
       0.15612125 -0.024327511 -0.21461487 0.0847197
000220 e2 02 0e 3e 89 01 97 3d d5 9c 2f 3e af e5 16 be
       0.13868287 0.0737334 0.1714967 -0.14736055
000230 20 37 a7 3d 22 c2 9e bd a6 78 87 3d 4d c8 d3 bb
       0.08164811 -0.07751872 0.06614809 -0.0064630867
000240 88 91 8e bd 7d 2e 3a be cf 2b d8 bb 73 28 f5 3d
       -0.06961352 -0.18181796 -0.0065970193 0.11970606
000250 b4 b4 33 3e 36 1f 5d 3e f5 8d 19 bc 8e 53 71 3d
       0.17549402 0.21593937 -0.009372224 0.058917575
000260 8f 28 53 be 19 44 ed 3d 82 ee 8c bd c0 2f 70 be
       -0.2062094 0.11585254 -0.06881429 -0.23455715
000270 82 e4 9b be 66 53 21 3e c1 7f 04 be 95 ac 94 3e
       -0.30447775 0.1575447 -0.12939359 0.2903792
000280 bc 2b 19 be 66 be 2a be f2 ba 79 be 7b dc 96 3e
       -0.1495809 -0.16674194 -0.2438772 0.29465088
000290 68 ad 90 be ab 52 5c be 5a 33 9c be b9 46 81 be
       -0.28257298 -0.2151591 -0.30507928 -0.2524927
0002a0 9e 47 73 be 31 b5 0b be 73 05 99 3e a8 52 83 be
       -0.23757789 -0.13643338 0.2988697 -0.25649
0002b0 fc 28 1e 3e d7 9e 4e be 52 8f d4 3e 33 2f 71 be
       0.15445322 -0.2017778 0.41515595 -0.23553161
0002c0 e4 33 5a 3e 3a 6c 6a bd ef 08 65 be 20 0e 61 be
       0.21308857 -0.05723212 -0.22366689 -0.21978045
0002d0 ce ee 56 be 30 5b 2d be 5e 43 8a be 17 58 0d be
       -0.20989534 -0.16929317 -0.27004522 -0.13803135
0002e0 37 d9 b5 3e 6f b7 66 be 4d 3a 42 3b 52 f2 0c be
       0.35517284 -0.22530912 0.00296368 -0.13764313
0002f0 46 e6 13 be ce 36 2c be 01 d5 ef bd 8a f2 ca 3b
       -0.14443311 -0.16817781 -0.11710549 0.0061934637
000300 73 4a 1c bc e4 7f a2 bd 62 d4 7c be b8 3a 52 3e
       -0.009539234 -0.079345495 -0.24690393 0.20530212
000310 ae a1 95 bd 55 ad 9d bd 2f 3b e6 3d 7f f5 7d 3e
       -0.073062286 -0.07699076 0.11241757 0.2480068
