assets/my_lstm_model.tflite (tflite, 141620 bytes, 13 tensors)

sequential_1/lstm_3/TensorArrayV2_1 f4 [1, 1, 50]
000000 00 00 00 00 00 00 00 00 00 00 00 00 00 00 00 00
       0.0 0.0 0.0 0.0
000010 00 00 00 00 00 00 00 00 00 00 00 00 00 00 00 00
       0.0 0.0 0.0 0.0
000020 00 00 00 00 00 00 00 00 00 00 00 00 00 00 00 00
       0.0 0.0 0.0 0.0
000030 00 00 00 00 00 00 00 00 00 00 00 00 00 00 00 00
       0.0 0.0 0.0 0.0
000040 00 00 00 00 00 00 00 00 00 00 00 00 00 00 00 00
       0.0 0.0 0.0 0.0
000050 00 00 00 00 00 00 00 00 00 00 00 00 00 00 00 00
       0.0 0.0 0.0 0.0
000060 00 00 00 00 00 00 00 00 00 00 00 00 00 00 00 00
       0.0 0.0 0.0 0.0
000070 00 00 00 00 00 00 00 00 00 00 00 00 00 00 00 00
       0.0 0.0 0.0 0.0
000080 00 00 00 00 00 00 00 00 00 00 00 00 00 00 00 00
       0.0 0.0 0.0 0.0
000090 00 00 00 00 00 00 00 00 00 00 00 00 00 00 00 00
       0.0 0.0 0.0 0.0
0000a0 00 00 00 00 00 00 00 00 00 00 00 00 00 00 00 00
       0.0 0.0 0.0 0.0
0000b0 00 00 00 00 00 00 00 00 00 00 00 00 00 00 00 00
       0.0 0.0 0.0 0.0
0000c0 00 00 00 00 00 00 00 00
       0.0 0.0

sequential_1/lstm_2/TensorArrayV2_1 f4 [3, 1, 50]
000000 00 00 00 00 00 00 00 00 00 00 00 00 00 00 00 00
       0.0 0.0 0.0 0.0
000010 00 00 00 00 00 00 00 00 00 00 00 00 00 00 00 00
       0.0 0.0 0.0 0.0
000020 00 00 00 00 00 00 00 00 00 00 00 00 00 00 00 00
       0.0 0.0 0.0 0.0
000030 00 00 00 00 00 00 00 00 00 00 00 00 00 00 00 00
       0.0 0.0 0.0 0.0
000040 00 00 00 00 00 00 00 00 00 00 00 00 00 00 00 00
       0.0 0.0 0.0 0.0
000050 00 00 00 00 00 00 00 00 00 00 00 00 00 00 00 00
       0.0 0.0 0.0 0.0
000060 00 00 00 00 00 00 00 00 00 00 00 00 00 00 00 00
       0.0 0.0 0.0 0.0
000070 00 00 00 00 00 00 00 00 00 00 00 00 00 00 00 00
       0.0 0.0 0.0 0.0
000080 00 00 00 00 00 00 00 00 00 00 00 00 00 00 00 00
       0.0 0.0 0.0 0.0
000090 00 00 00 00 00 00 00 00 00 00 00 00 00 00 00 00
       0.0 0.0 0.0 0.0
0000a0 00 00 00 00 00 00 00 00 00 00 00 00 00 00 00 00
       0.0 0.0 0.0 0.0
0000b0 00 00 00 00 00 00 00 00 00 00 00 00 00 00 00 00
       0.0 0.0 0.0 0.0
0000c0 00 00 00 00 00 00 00 00 00 00 00 00 00 00 00 00
       0.0 0.0 0.0 0.0
0000d0 00 00 00 00 00 00 00 00 00 00 00 00 00 00 00 00
       0.0 0.0 0.0 0.0
0000e0 00 00 00 00 00 00 00 00 00 00 00 00 00 00 00 00
       0.0 0.0 0.0 0.0
0000f0 00 00 00 00 00 00 00 00 00 00 00 00 00 00 00 00
       0.0 0.0 0.0 0.0
000100 00 00 00 00 00 00 00 00 00 00 00 00 00 00 00 00
       0.0 0.0 0.0 0.0
000110 00 00 00 00 00 00 00 00 00 00 00 00 00 00 00 00
       0.0 0.0 0.0 0.0
000120 00 00 00 00 00 00 00 00 00 00 00 00 00 00 00 00
       0.0 0.0 0.0 0.0
000130 00 00 00 00 00 00 00 00 00 00 00 00 00 00 00 00
       0.0 0.0 0.0 0.0
000140 00 00 00 00 00 00 00 00 00 00 00 00 00 00 00 00
       0.0 0.0 0.0 0.0
000150 00 00 00 00 00 00 00 00 00 00 00 00 00 00 00 00
       0.0 0.0 0.0 0.0
000160 00 00 00 00 00 00 00 00 00 00 00 00 00 00 00 00
       0.0 0.0 0.0 0.0
000170 00 00 00 00 00 00 00 00 00 00 00 00 00 00 00 00
       0.0 0.0 0.0 0.0
000180 00 00 00 00 00 00 00 00 00 00 00 00 00 00 00 00
       0.0 0.0 0.0 0.0
000190 00 00 00 00 00 00 00 00 00 00 00 00 00 00 00 00
       0.0 0.0 0.0 0.0
0001a0 00 00 00 00 00 00 00 00 00 00 00 00 00 00 00 00
       0.0 0.0 0.0 0.0
0001b0 00 00 00 00 00 00 00 00 00 00 00 00 00 00 00 00
       0.0 0.0 0.0 0.0
0001c0 00 00 00 00 00 00 00 00 00 00 00 00 00 00 00 00
       0.0 0.0 0.0 0.0
0001d0 00 00 00 00 00 00 00 00 00 00 00 00 00 00 00 00
       0.0 0.0 0.0 0.0
0001e0 00 00 00 00 00 00 00 00 00 00 00 00 00 00 00 00
       0.0 0.0 0.0 0.0
0001f0 00 00 00 00 00 00 00 00 00 00 00 00 00 00 00 00
       0.0 0.0 0.0 0.0
000200 00 00 00 00 00 00 00 00 00 00 00 00 00 00 00 00
       0.0 0.0 0.0 0.0
000210 00 00 00 00 00 00 00 00 00 00 00 00 00 00 00 00
       0.0 0.0 0.0 0.0
000220 00 00 00 00 00 00 00 00 00 00 00 00 00 00 00 00
       0.0 0.0 0.0 0.0
000230 00 00 00 00 00 00 00 00 00 00 00 00 00 00 00 00
       0.0 0.0 0.0 0.0
000240 00 00 00 00 00 00 00 00 00 00 00 00 00 00 00 00
       0.0 0.0 0.0 0.0
000250 00 00 00 00 00 00 00 00
       0.0 0.0

sequential_1/lstm_2/zeros f4 [1, 50]
000000 00 00 00 00 00 00 00 00 00 00 00 00 00 00 00 00
       0.0 0.0 0.0 0.0
000010 00 00 00 00 00 00 00 00 00 00 00 00 00 00 00 00
       0.0 0.0 0.0 0.0
000020 00 00 00 00 00 00 00 00 00 00 00 00 00 00 00 00
       0.0 0.0 0.0 0.0
000030 00 00 00 00 00 00 00 00 00 00 00 00 00 00 00 00
       0.0 0.0 0.0 0.0
000040 00 00 00 00 00 00 00 00 00 00 00 00 00 00 00 00
       0.0 0.0 0.0 0.0
000050 00 00 00 00 00 00 00 00 00 00 00 00 00 00 00 00
       0.0 0.0 0.0 0.0
000060 00 00 00 00 00 00 00 00 00 00 00 00 00 00 00 00
       0.0 0.0 0.0 0.0
000070 00 00 00 00 00 00 00 00 00 00 00 00 00 00 00 00
       0.0 0.0 0.0 0.0
000080 00 00 00 00 00 00 00 00 00 00 00 00 00 00 00 00
       0.0 0.0 0.0 0.0
000090 00 00 00 00 00 00 00 00 00 00 00 00 00 00 00 00
       0.0 0.0 0.0 0.0
0000a0 00 00 00 00 00 00 00 00 00 00 00 00 00 00 00 00
       0.0 0.0 0.0 0.0
0000b0 00 00 00 00 00 00 00 00 00 00 00 00 00 00 00 00
       0.0 0.0 0.0 0.0
0000c0 00 00 00 00 00 00 00 00
       0.0 0.0

sequential_1/lstm_3/lstm_cell/BiasAdd/ReadVariableOp/resource f4 [200]
000000 fa e3 23 3d b0 f5 84 3d bd 65 e3 bb bb 0e 5b 3d
       0.040012337 0.06492174 -0.0069396184 0.053480845
000010 1a 33 43 3d fd b6 fc bb be f5 58 3d b4 ea 69 3d
       0.047656156 -0.0077122436 0.052968733 0.057108596
000020 ac e8 4a bc 98 46 0a bc af b7 5d 3c 00 00 00 00
       -0.012384575 -0.008439682 0.013532563 0.0
000030 b0 cf a3 bc d9 8c 09 bc db e3 6a bc 00 00 00 00
       -0.019996494 -0.008395397 -0.014336552 0.0
000040 bd 0b e6 3b 00 00 00 00 33 45 ff 3c 17 45 7d bc
       0.0070204423 0.0 0.031160926 -0.015458367
000050 6d 72 5c 3d 00 00 00 00 1b f2 5a 3d fe 5e c7 3c
       0.053820062 0.0 0.053453546 0.024337288
000060 00 00 00 00 f7 6f 68 3d 00 00 00 00 d6 1f ec ba
       0.0 0.056747403 0.0 -0.0018014859
000070 00 00 00 00 0c 31 80 3c 00 00 00 00 00 00 00 00
       0.0 0.015648387 0.0 0.0
000080 00 00 00 00 00 00 00 00 d6 96 89 3d 00 00 00 00
       0.0 0.0 0.06718223 0.0
000090 00 00 00 00 e1 5a 59 3d ad 79 58 3d 13 32 00 bc
       0.0 0.053065185 0.052850414 -0.007824439
0000a0 c9 90 5f 3d 8a b7 a9 bb 00 00 00 00 ed 6f 74 3d
       0.054581437 -0.0051793503 0.0 0.059677053
0000b0 6c 47 61 3d 00 00 00 00 00 00 00 00 02 7f 20 bc
       0.054999754 0.0 0.0 -0.009795906
0000c0 5d ab 47 3d 07 8a 0d bc 26 b1 83 3f 33 c4 88 3f
       0.04874741 -0.008638865 1.0288436 1.0684875
0000d0 e5 50 7e 3f 3d 63 87 3f 3e cc 86 3f 92 54 7e 3f
       0.99342185 1.057716 1.053108 0.99347794
0000e0 f8 a8 86 3f b6 fd 87 3f 52 e7 7c 3f f1 e7 7d 3f
       1.0520315 1.0624301 0.98790467 0.9918204
0000f0 5e 08 6c 3f 00 00 80 3f bc 26 7b 3f 95 bf 7d 3f
       0.9220027 1.0 0.9810598 0.99120456
000100 21 89 7c 3f 00 00 80 3f c8 d8 81 3f 00 00 80 3f
       0.9864674 1.0 1.0144281 1.0
000110 0f c7 84 3f 49 cb 7b 3f a7 3a 87 3f 00 00 80 3f
       1.0373248 0.98357064 1.0564774 1.0
000120 3d 18 88 3f ba 67 82 3f 00 00 80 3f 37 a8 87 3f
       1.0632397 1.0187905 1.0 1.059821
000130 00 00 80 3f 00 00 80 3f 00 00 80 3f 09 34 80 3f
       1.0 1.0 1.0 1.001588
000140 00 00 80 3f 00 00 80 3f 00 00 80 3f 00 00 80 3f
       1.0 1.0 1.0 1.0
000150 7c 50 89 3f 00 00 80 3f 00 00 80 3f 86 94 86 3f
       1.0727687 1.0 1.0 1.0514076
000160 1e e6 87 3f 6e 26 7e 3f 0a 7c 87 3f 7b 2c 7c 3f
       1.0617101 0.9927739 1.0584729 0.9850537
000170 00 00 80 3f 4a 69 86 3f f8 f9 85 3f 00 00 80 3f
       1.0 1.0500882 1.046691 1.0
000180 00 00 80 3f 1a 29 7f 3f 96 dd 85 3f a9 07 7e 3f
       1.0 0.9967209 1.0458248 0.9923044
000190 bc 81 48 3d 43 a5 87 3d 11 5b 08 bc 39 a8 2f 3d
       0.04895185 0.06623318 -0.008322493 0.04288504
0001a0 6a 8b 19 3d 39 03 1d bc 65 06 33 3d 30 9d 4d 3d
       0.03748647 -0.009583288 0.04370727 0.050198734
0001b0 e2 4f 76 bc a0 f2 27 bc d3 77 0e bc 00 00 00 00
       -0.015033694 -0.010250717 -0.0086955605 0.0
0001c0 3f ab d0 bc 7c 5b 22 bc 4d 71 91 bc 00 00 00 00
       -0.025472282 -0.009909507 -0.017754221 0.0
0001d0 2e 8c ce 3c 00 00 00 00 b2 74 15 3d 2e d6 9b bc
       0.025213327 0.0 0.036488242 -0.019023027
0001e0 27 3f 27 3d 00 00 00 00 30 1b 2b 3d 6f 1a b8 3c
       0.04083171 0.0 0.041773975 0.022473542
0001f0 00 00 00 00 5c f7 40 3d 00 00 00 00 dd b3 c3 bb
       0.0 0.0471109 0.0 -0.005972369
000200 00 00 00 00 b8 4c 13 39 00 00 00 00 00 00 00 00
       0.0 0.00014047592 0.0 0.0
000210 00 00 00 00 00 00 00 00 28 b0 19 bc 00 00 00 00
       0.0 0.0 -0.009380378 0.0
000220 00 00 00 00 20 46 31 3d 9a 1f 3b 3d 06 40 20 bc
       0.0 0.043279767 0.045684434 -0.009780889
000230 26 21 39 3d d6 63 71 bc 00 00 00 00 22 89 5d 3d
       0.04519763 -0.014733275 0.0 0.05408586
000240 53 f6 40 3d 00 00 00 00 00 00 00 00 8f 6d 52 bc
       0.047109913 0.0 0.0 -0.012843504
000250 7e 49 27 3d f1 43 27 bc 7b b2 21 3d 79 74 87 3d
       0.040841572 -0.01020907 0.039476853 0.06614012
000260 58 7e e3 bb 84 8e 5a 3d 21 6b 45 3d 1e 12 fd bb
       -0.0069425516 0.05335857 0.04819787 -0.007723107
000270 6f c8 58 3d 01 17 69 3d 3d 10 4b bc 73 3b 0a bc
       0.052925523 0.056906704 -0.012394008 -0.008437025
000280 e1 77 58 3c 00 00 00 00 91 ae a3 bc de 8d 09 bc
       0.013212175 0.0 -0.0199807 -0.00839564
000290 50 f0 6a bc 00 00 00 00 6f 7e 03 3c 00 00 00 00
       -0.0143395215 0.0 0.00802575 0.0
0002a0 3b 1d 03 3d 9f 01 7d bc 55 a1 58 3d 00 00 00 00
       0.0320103 -0.015442281 0.052888233 0.0
0002b0 d8 d7 5a 3d 1d 28 c0 3c 00 00 00 00 2d d3 69 3d
       0.0534285 0.023456628 0.0 0.05708616
0002c0 00 00 00 00 81 fc ee ba 00 00 00 00 b3 e1 83 3c
       0.0 -0.0018233211 0.0 0.016098833
0002d0 00 00 00 00 00 00 00 00 00 00 00 00 00 00 00 00
       0.0 0.0 0.0 0.0
0002e0 4e 96 88 3d 00 00 00 00 00 00 00 00 72 27 59 3d
       0.06669293 0.0 0.0 0.053016134
0002f0 f5 44 5c 3d cb 29 00 bc 4d a6 60 3d 51 25 a4 bb
       0.0537767 -0.007822464 0.054846097 -0.0050093313
000300 00 00 00 00 87 dc 70 3d 9f 80 5c 3d 00 00 00 00
       0.0 0.05880406 0.0538336 0.0
000310 00 00 00 00 f9 6d 20 bc 5b dd 3e 3d 10 9c 0d bc
       0.0 -0.0097918445 0.04659782 -0.008643165

sequential_1/lstm_2/lstm_cell/BiasAdd/ReadVariableOp/resource f4 [200]
000000 63 18 08 bc 46 e0 b9 3c bb 28 ad 3d 29 65 6f 3d
       -0.0083065955 0.02268995 0.08455034 0.058446083
000010 00 00 00 00 d4 e0 87 ba c3 78 3f bc 00 00 00 00
       0.0 -0.0010366687 -0.011686507 0.0
000020 00 00 00 00 f8 9b 6d 3d f0 0f 16 3c 04 f0 69 3d
       0.0 0.05801007 0.009159073 0.057113662
000030 00 00 00 00 00 00 00 00 43 69 68 3c 73 fe 47 3d
       0.0 0.0 0.014185253 0.048826646
000040 00 00 00 00 00 00 00 00 8e 1c 66 3d a4 7c 58 3d
       0.0 0.0 0.056179576 0.05285324
000050 5c 68 b6 3d 00 00 00 00 00 00 00 00 00 00 00 00
       0.08906624 0.0 0.0 0.0
000060 81 eb 30 bc f6 82 4a 3d 57 13 42 3d 98 88 47 3d
       -0.010798336 0.0494413 0.047381725 0.04871425
000070 00 00 00 00 af cf 13 3c 00 00 00 00 3e 90 48 3d
       0.0 0.009021684 0.0 0.048965685
000080 04 91 69 3d 4c a0 6a 3d 89 51 90 3b 49 1b 66 3d
       0.057023063 0.057281777 0.004404251 0.056178365
000090 b9 57 5b 3d 00 00 00 00 00 00 00 00 00 00 00 00
       0.053550456 0.0 0.0 0.0
0000a0 00 00 00 00 41 03 aa 3d ec dc b8 3c e3 a5 31 3d
       0.0 0.08301402 0.022566281 0.043371093
0000b0 df 8f 51 3d 00 00 00 00 00 00 00 00 7f b5 9e bc
       0.051162597 0.0 0.0 -0.019373653
0000c0 00 00 00 00 38 65 8a ba 00 00 80 3f 1c 8e 83 3f
       0.0 -0.001055873 1.0 1.0277743
0000d0 12 e7 6e 3f b2 87 88 3f 00 00 80 3f 00 00 80 3f
       0.93321335 1.0666411 1.0 1.0
0000e0 31 39 7d 3f 00 00 80 3f 00 00 80 3f bd 36 88 3f
       0.9891539 1.0 1.0 1.0641705
0000f0 7a a6 81 3f a8 52 88 3f 00 00 80 3f 00 00 80 3f
       1.012893 1.0650225 1.0 1.0
000100 c2 04 81 3f d5 b8 86 3f 00 00 80 3f 00 00 80 3f
       1.0079577 1.0525156 1.0 1.0
000110 7a 25 88 3f 67 f1 87 3f 00 00 80 3f 00 00 80 3f
       1.0636437 1.0620545 1.0 1.0
000120 00 00 80 3f 00 00 80 3f c3 41 7d 3f e5 37 86 3f
       1.0 1.0 0.9892847 1.0485808
000130 64 15 86 3f 54 9a 86 3f 00 00 80 3f 1f f8 7e 3f
       1.0475278 1.0515847 1.0 0.9959735
000140 00 00 80 3f 4d 96 86 3f f7 0d 88 3f d0 bd 87 3f
       1.0 1.0514618 1.0629262 1.0604801
000150 f5 4b 82 3f 96 9b 87 3f 26 cf 87 3f 00 00 80 3f
       1.017943 1.0594356 1.0610092 1.0
000160 00 00 80 3f 00 00 80 3f 00 00 80 3f 12 48 7f 3f
       1.0 1.0 1.0 0.99719346
000170 36 7a 83 3f b6 f9 86 3f 79 90 86 3f 00 00 80 3f
       1.0271671 1.0544956 1.051284 1.0
000180 00 00 80 3f 00 00 80 3f 00 00 80 3f 00 00 80 3f
       1.0 1.0 1.0 1.0
000190 68 2b 49 bc 5f 80 1f 3c 1f b9 21 bc 1c 32 45 3d
       -0.012278415 0.009735196 -0.009870796 0.04814349
0001a0 00 00 00 00 dc 57 ef bb 02 96 82 bc 00 00 00 00
       0.0 -0.007304175 -0.01594067 0.0
0001b0 00 00 00 00 2c ca 3f 3d e9 4b 90 3c 2c ab 42 3d
       0.0 0.046823665 0.017614322 0.047526523
0001c0 00 00 00 00 00 00 00 00 e0 39 44 b9 11 5b 17 3d
       0.0 0.0 -0.00018713577 0.036952082
0001d0 00 00 00 00 00 00 00 00 0a 08 2c 3d b8 a4 3a 3d
       0.0 0.0 0.041999854 0.045567244
0001e0 29 24 52 3a 00 00 00 00 00 00 00 00 00 00 00 00
       0.00080162525 0.0 0.0 0.0
0001f0 d7 4f 55 bc 27 20 40 3d 46 43 1b 3d ed 3b 26 3d
       -0.013019524 0.046905663 0.037905954 0.040584493
000200 00 00 00 00 6b f9 0a bd 00 00 00 00 26 e8 17 3d
       0.0 -0.03392927 0.0 0.03708663
000210 f4 15 3a 3d 24 50 3e 3d 61 47 67 b9 0e 97 3a 3d
       0.045431092 0.046463147 -0.00022056467 0.045554213
000220 01 61 50 3d 00 00 00 00 00 00 00 00 00 00 00 00
       0.05087376 0.0 0.0 0.0
000230 00 00 00 00 41 7b 2c 3c bc ed 8f 3c 45 ff e7 3c
       0.0 0.010527433 0.017569415 0.028319964
000240 e7 94 2e 3d 00 00 00 00 00 00 00 00 dc c0 cc bc
       0.042622473 0.0 0.0 -0.024994306
000250 00 00 00 00 a0 52 83 bc e0 80 08 bc 31 36 b5 3c
       0.0 -0.01603061 -0.008331507 0.022120567
000260 2a be ae 3d 4e ed 71 3d 00 00 00 00 7a 12 90 ba
       0.08532365 0.059064202 0.0 -0.0010991835
000270 6d 34 3f bc 00 00 00 00 00 00 00 00 ef b5 6f 3d
       -0.011670214 0.0 0.0 0.058523115
000280 ef a3 04 3c f9 95 6c 3d 00 00 00 00 00 00 00 00
       0.008095725 0.057760213 0.0 0.0
000290 76 5c 66 3c 05 3e 48 3d 00 00 00 00 00 00 00 00
       0.01406013 0.04888727 0.0 0.0
0002a0 44 cb 68 3d 3b 2f 62 3d d4 1a b6 3d 00 00 00 00
       0.056834474 0.055220824 0.08891836 0.0
0002b0 00 00 00 00 00 00 00 00 79 de 31 bc 01 92 4b 3d
       0.0 0.0 -0.010856264 0.049699787
0002c0 40 b2 49 3d d4 9c 48 3d 00 00 00 00 8f 92 09 3c
       0.049242258 0.048977688 0.0 0.008396759
0002d0 00 00 00 00 ba c1 44 3d e0 3d 6a 3d ad 21 6d 3d
       0.0 0.048036315 0.057187915 0.057893444
0002e0 8e ce b0 3b 6a f9 68 3d f8 fc 61 3d 00 00 00 00
       0.005395717 0.056878485 0.05517289 0.0
0002f0 00 00 00 00 00 00 00 00 00 00 00 00 fd ce a9 3d
       0.0 0.0 0.0 0.08291433
000300 90 8e b9 3c 1c 14 32 3d 98 de 54 3d 00 00 00 00
       0.022650987 0.04347621 0.051970094 0.0
000310 00 00 00 00 11 f1 9e bc 00 00 00 00 97 85 8c ba
       0.0 -0.019402059 0.0 -0.0010720965

sequential_1/dense_1/BiasAdd/ReadVariableOp/resource f4 [3]
000000 d9 33 64 3d e8 9e 3a 3d 29 58 27 3d
       0.05571351 0.0455617 0.04085556

sequential_1/dense_1/MatMul f4 [3, 50]
000000 87 90 b6 3e a2 35 84 3e 15 e7 ce bd 9b aa a5 bd
       0.3565714 0.2582217 -0.10102669 -0.08089181
000010 68 0c 11 be 9e 85 87 be eb b1 8f 3d e7 23 3d 3e
       -0.14164889 -0.2646913 0.07016357 0.18470727
000020 cd 1d 5c be 3b f0 28 be 5a c8 f2 3d 5b 5f 96 be
       -0.21495743 -0.1649789 0.1185462 -0.29369625
000030 23 fb 5c 3e de ee 33 3e 91 97 a6 3e a9 cb a0 3e
       0.21580176 0.1757159 0.3253751 0.3140538
000040 94 5f 4f 3e aa 13 3f 3e bd 60 85 3e 8f 46 b9 bd
       0.20251304 0.18659845 0.26050368 -0.09046661
000050 7b 8f b3 bd ba d1 75 3e da 7e 30 be 54 da 6c bc
       -0.08767601 0.24005786 -0.1723589 -0.01445635
000060 82 15 0d 3e 42 7c 8e 3e 90 64 70 3d 61 64 e2 bc
       0.13777736 0.27829176 0.058689654 -0.027635755
000070 9c 78 ec 3d 38 2f 65 be eb d0 8a be 55 40 8f 3e
       0.11546442 -0.22381294 -0.27112517 0.2797877
000080 80 55 bc 3c a0 3e de bc 4e bc 9b be 0c ac da bd
       0.022989988 -0.027129471 -0.30417103 -0.106773466
000090 b0 7d 17 bd d6 a2 21 3d 84 10 1f 3b 9d 32 be bd
       -0.0369851 0.039461933 0.0024271319 -0.092869975
0000a0 3e 4b fd 3c d7 32 1d be 54 10 af bd af f3 c3 3e
       0.030919667 -0.15351425 -0.08548036 0.38271853
0000b0 68 8e 26 3e 12 40 64 3e 80 ff 7d bb 45 f7 b0 3d
       0.16265261 0.22290066 -0.0038757026 0.08640913
0000c0 9d c7 18 3d 28 10 00 be 62 ec 91 bd da c9 42 3e
       0.03729974 -0.12506163 -0.071251646 0.19022313
0000d0 c3 47 88 bd e2 f3 91 3e c5 2f 3d 3d 9d 92 ed 3c
       -0.066543125 0.2850638 0.046188135 0.029000575
0000e0 f7 13 96 bd fa 91 7b 3e 4d 8d 7e be 0d b0 53 be
       -0.07328027 0.24567404 -0.2485859 -0.20672627
0000f0 bd 49 fc bd 38 11 5b be 1f 8b 92 be 8a d1 95 be
       -0.12318752 -0.21393287 -0.28621766 -0.29261428
000100 73 3d 78 bc 81 8c 82 3e 15 16 d9 3d 80 00 bf bc
       -0.015151369 0.2549782 0.10599915 -0.023315668
000110 e7 b2 ae 3e da 97 9a be c8 b5 4c 3d e1 92 98 3e
       0.34120867 -0.3019398 0.049978048 0.2979956
000120 76 68 80 3e 51 ae 1c be fe ea 7e be f8 ca ae 3e
       0.25079697 -0.15300871 -0.2489433 0.34139228
000130 0e dd e2 bd 20 a1 a9 be 71 05 a4 3e cc 4f c7 3d
       -0.11077319 -0.3313074 0.320354 0.09732017
000140 ce 10 68 3e 1a 7a 77 3e 5d df a5 be 78 77 33 bd
       0.2266266 0.24167672 -0.32396975 -0.043815106
000150 4e 8f 67 3e 16 01 03 3e 82 2d 70 3e eb ab 9c bd
       0.2261326 0.12793383 0.2345486 -0.07649978
000160 0e 7f bf 3e 2d b7 03 be 17 6f ab 3e 88 a1 4a be
       0.37401623 -0.12862845 0.33483192 -0.19788182
000170 d8 a5 01 3d 66 21 5b be 64 2a 35 be b0 71 8f bd
       0.0316523 -0.21399459 -0.17691952 -0.07004106
000180 69 ce 91 3e bf c3 a3 be ed c9 48 be 3b 21 c6 3d
       0.2847779 -0.3198528 -0.19608279 0.09674307
000190 d7 37 1c 3d 2e 12 de bd 1b 3d 11 bd 3f aa a5 3e
       0.03813919 -0.10843311 -0.035458665 0.3235645
0001a0 07 d4 9d 3e ad c9 99 be f3 d8 91 3e 59 c5 99 3d
       0.30825827 -0.3003668 0.28485832 0.07508344
0001b0 ed b3 e5 bd 79 12 8f bd bf 67 f9 3c 06 35 66 3e
       -0.11215959 -0.06985945 0.030444978 0.22481164
0001c0 f2 22 17 be 95 e2 42 be af fd 60 be 6a d5 8d be
       -0.14759424 -0.19031747 -0.21971773 -0.27701885
0001d0 97 53 8b 3c 5e 20 aa be c3 26 46 bd c2 4a 03 3e
       0.017007632 -0.3322782 -0.04837681 0.12821487
0001e0 64 60 2f 3e 70 f0 a0 be 0e da 48 3e 94 36 94 3e
       0.17126614 -0.3143344 0.19614431 0.2894789
0001f0 c0 64 fc 3c 29 c1 ac 3e 58 15 26 3d 70 a5 ba bd
       0.03080976 0.3374112 0.0405477 -0.09113586
000200 d3 49 82 3e d2 cf fe bd 88 da 81 be c6 e3 70 3e
       0.25446948 -0.12441982 -0.2536204 0.23524389
000210 5c 92 1e 3e 58 01 23 bd bb ca a1 bd 4c 20 82 be
       0.15485519 -0.039796203 -0.07899996 -0.25415266
000220 80 bd 52 3c c7 03 81 3e 5c c7 23 3e 46 c7 00 be
       0.012862563 0.25198194 0.15994018 -0.12576017
000230 2d 79 a8 3e dc c4 8b 3e 35 bd a6 be 48 95 5a 3e
       0.3290495 0.2729863 -0.32566229 0.21346009
000240 8b cb 53 3e cd dd 8c be 8c fe 84 bd d0 d4 0b 3e
       0.20683114 -0.2751297 -0.064938635 0.136554
000250 59 f1 c1 3e b5 89 17 be
       0.37879446 -0.14798625

sequential_1/lstm_2/lstm_cell/BiasAdd/ReadVariableOp/resource1 f4 [200]
000000 63 18 08 bc 46 e0 b9 3c bb 28 ad 3d 29 65 6f 3d
       -0.0083065955 0.02268995 0.08455034 0.058446083
000010 00 00 00 00 d4 e0 87 ba c3 78 3f bc 00 00 00 00
       0.0 -0.0010366687 -0.011686507 0.0
000020 00 00 00 00 f8 9b 6d 3d f0 0f 16 3c 04 f0 69 3d
       0.0 0.05801007 0.009159073 0.057113662
000030 00 00 00 00 00 00 00 00 43 69 68 3c 73 fe 47 3d
       0.0 0.0 0.014185253 0.048826646
000040 00 00 00 00 00 00 00 00 8e 1c 66 3d a4 7c 58 3d
       0.0 0.0 0.056179576 0.05285324
000050 5c 68 b6 3d 00 00 00 00 00 00 00 00 00 00 00 00
       0.08906624 0.0 0.0 0.0
000060 81 eb 30 bc f6 82 4a 3d 57 13 42 3d 98 88 47 3d
       -0.010798336 0.0494413 0.047381725 0.04871425
000070 00 00 00 00 af cf 13 3c 00 00 00 00 3e 90 48 3d
       0.0 0.009021684 0.0 0.048965685
000080 04 91 69 3d 4c a0 6a 3d 89 51 90 3b 49 1b 66 3d
       0.057023063 0.057281777 0.004404251 0.056178365
000090 b9 57 5b 3d 00 00 00 00 00 00 00 00 00 00 00 00
       0.053550456 0.0 0.0 0.0
0000a0 00 00 00 00 41 03 aa 3d ec dc b8 3c e3 a5 31 3d
       0.0 0.08301402 0.022566281 0.043371093
0000b0 df 8f 51 3d 00 00 00 00 00 00 00 00 7f b5 9e bc
       0.051162597 0.0 0.0 -0.019373653
0000c0 00 00 00 00 38 65 8a ba 00 00 80 3f 1c 8e 83 3f
       0.0 -0.001055873 1.0 1.0277743
0000d0 12 e7 6e 3f b2 87 88 3f 00 00 80 3f 00 00 80 3f
       0.93321335 1.0666411 1.0 1.0
0000e0 31 39 7d 3f 00 00 80 3f 00 00 80 3f bd 36 88 3f
       0.9891539 1.0 1.0 1.0641705
0000f0 7a a6 81 3f a8 52 88 3f 00 00 80 3f 00 00 80 3f
       1.012893 1.0650225 1.0 1.0
000100 c2 04 81 3f d5 b8 86 3f 00 00 80 3f 00 00 80 3f
       1.0079577 1.0525156 1.0 1.0
000110 7a 25 88 3f 67 f1 87 3f 00 00 80 3f 00 00 80 3f
       1.0636437 1.0620545 1.0 1.0
000120 00 00 80 3f 00 00 80 3f c3 41 7d 3f e5 37 86 3f
       1.0 1.0 0.9892847 1.0485808
000130 64 15 86 3f 54 9a 86 3f 00 00 80 3f 1f f8 7e 3f
       1.0475278 1.0515847 1.0 0.9959735
000140 00 00 80 3f 4d 96 86 3f f7 0d 88 3f d0 bd 87 3f
       1.0 1.0514618 1.0629262 1.0604801
000150 f5 4b 82 3f 96 9b 87 3f 26 cf 87 3f 00 00 80 3f
       1.017943 1.0594356 1.0610092 1.0
000160 00 00 80 3f 00 00 80 3f 00 00 80 3f 12 48 7f 3f
       1.0 1.0 1.0 0.99719346
000170 36 7a 83 3f b6 f9 86 3f 79 90 86 3f 00 00 80 3f
       1.0271671 1.0544956 1.051284 1.0
000180 00 00 80 3f 00 00 80 3f 00 00 80 3f 00 00 80 3f
       1.0 1.0 1.0 1.0
000190 68 2b 49 bc 5f 80 1f 3c 1f b9 21 bc 1c 32 45 3d
       -0.012278415 0.009735196 -0.009870796 0.04814349
0001a0 00 00 00 00 dc 57 ef bb 02 96 82 bc 00 00 00 00
       0.0 -0.007304175 -0.01594067 0.0
0001b0 00 00 00 00 2c ca 3f 3d e9 4b 90 3c 2c ab 42 3d
       0.0 0.046823665 0.017614322 0.047526523
0001c0 00 00 00 00 00 00 00 00 e0 39 44 b9 11 5b 17 3d
       0.0 0.0 -0.00018713577 0.036952082
0001d0 00 00 00 00 00 00 00 00 0a 08 2c 3d b8 a4 3a 3d
       0.0 0.0 0.041999854 0.045567244
0001e0 29 24 52 3a 00 00 00 00 00 00 00 00 00 00 00 00
       0.00080162525 0.0 0.0 0.0
0001f0 d7 4f 55 bc 27 20 40 3d 46 43 1b 3d ed 3b 26 3d
       -0.013019524 0.046905663 0.037905954 0.040584493
000200 00 00 00 00 6b f9 0a bd 00 00 00 00 26 e8 17 3d
       0.0 -0.03392927 0.0 0.03708663
000210 f4 15 3a 3d 24 50 3e 3d 61 47 67 b9 0e 97 3a 3d
       0.045431092 0.046463147 -0.00022056467 0.045554213
000220 01 61 50 3d 00 00 00 00 00 00 00 00 00 00 00 00
       0.05087376 0.0 0.0 0.0
000230 00 00 00 00 41 7b 2c 3c bc ed 8f 3c 45 ff e7 3c
       0.0 0.010527433 0.017569415 0.028319964
000240 e7 94 2e 3d 00 00 00 00 00 00 00 00 dc c0 cc bc
       0.042622473 0.0 0.0 -0.024994306
000250 00 00 00 00 a0 52 83 bc e0 80 08 bc 31 36 b5 3c
       0.0 -0.01603061 -0.008331507 0.022120567
000260 2a be ae 3d 4e ed 71 3d 00 00 00 00 7a 12 90 ba
       0.08532365 0.059064202 0.0 -0.0010991835
000270 6d 34 3f bc 00 00 00 00 00 00 00 00 ef b5 6f 3d
       -0.011670214 0.0 0.0 0.058523115
000280 ef a3 04 3c f9 95 6c 3d 00 00 00 00 00 00 00 00
       0.008095725 0.057760213 0.0 0.0
000290 76 5c 66 3c 05 3e 48 3d 00 00 00 00 00 00 00 00
       0.01406013 0.04888727 0.0 0.0
0002a0 44 cb 68 3d 3b 2f 62 3d d4 1a b6 3d 00 00 00 00
       0.056834474 0.055220824 0.08891836 0.0
0002b0 00 00 00 00 00 00 00 00 79 de 31 bc 01 92 4b 3d
       0.0 0.0 -0.010856264 0.049699787
0002c0 40 b2 49 3d d4 9c 48 3d 00 00 00 00 8f 92 09 3c
       0.049242258 0.048977688 0.0 0.008396759
0002d0 00 00 00 00 ba c1 44 3d e0 3d 6a 3d ad 21 6d 3d
       0.0 0.048036315 0.057187915 0.057893444
0002e0 8e ce b0 3b 6a f9 68 3d f8 fc 61 3d 00 00 00 00
       0.005395717 0.056878485 0.05517289 0.0
0002f0 00 00 00 00 00 00 00 00 00 00 00 00 fd ce a9 3d
       0.0 0.0 0.0 0.08291433
000300 90 8e b9 3c 1c 14 32 3d 98 de 54 3d 00 00 00 00
       0.022650987 0.04347621 0.051970094 0.0
000310 00 00 00 00 11 f1 9e bc 00 00 00 00 97 85 8c ba
       0.0 -0.019402059 0.0 -0.0010720965

sequential_1/lstm_2/while/lstm_cell/MatMul_11 f4 [200, 50]
000000 40 f6 a0 3c d2 6e bb 3d 30 09 45 3c 50 87 58 bc
       0.019648671 0.09151997 0.012026116 -0.013215855
000010 8a 99 28 3d 58 7c 01 3d aa 4b d0 3d 34 84 99 3d
       0.04116205 0.031612724 0.10170682 0.07495919
000020 58 54 76 3c d5 06 3f be f3 19 3d 3d ab 59 19 be
       0.015034758 -0.1865495 0.046167325 -0.14975612
000030 78 ca 47 bc fe 93 c4 3d 56 24 b6 3d 22 dc 29 bd
       -0.012194268 0.0959854 0.08893649 -0.0414697
000040 ad c5 fb 3c 7a e3 84 bd 99 63 e4 3d 51 b0 4b bc
       0.030733908 -0.064887 0.11151809 -0.012432174
000050 74 7f b2 bc f2 e8 d5 bd bd fe 83 3d ee 43 c3 3d
       -0.02178929 -0.104448214 0.06445072 0.09534441
000060 92 17 14 bd 1e c6 09 be 84 4d 02 3e 63 5b e4 3d
       -0.03615529 -0.13454482 0.12724882 0.11150243
000070 67 01 41 bd d6 49 c8 3d d9 5d ab 3d c4 d0 b6 3d
       -0.047120478 0.09779708 0.083675094 0.08926538
000080 99 53 19 be b0 93 1f 3e 05 18 fa 3b 41 71 06 bc
       -0.14973296 0.15583682 0.007632258 -0.008205713
000090 27 2d 76 3d 50 15 4b bd 7c e8 21 3e 7a 56 70 bd
       0.060101654 -0.049580872 0.15811342 -0.05867622
0000a0 38 2b 23 3b 60 97 b9 3d 8c 82 49 3c 73 89 50 bd
       0.0024897587 0.090620756 0.012299191 -0.05091233
0000b0 72 fc 0a 3d f8 23 82 bd 91 6c 59 3d 3d c3 8b 3c
       0.033932157 -0.06354517 0.053082053 0.01706087
0000c0 ce d9 1a 3d e4 88 fd bd b3 65 08 3e cd 4c 31 bd
       0.03780537 -0.123796254 0.13320045 -0.043286134
0000d0 9a 56 9a 3d 51 0a 4e 3c 62 a6 0b be 53 c5 06 3d
       0.07536049 0.012575702 -0.13637689 0.032903027
0000e0 d5 f2 af 3d fc a8 fb bb 56 07 d5 bd 38 30 7a 3d
       0.085912384 -0.0076800566 -0.1040179 0.06108114
0000f0 2b ce 8d 3c fe 64 7d 3c 47 ad 1b 3e 90 12 68 3c
       0.017310223 0.015465973 0.15202819 0.014164582
000100 be cc 4b 3c 56 0f 9e 3d bf 6b 39 bd df 88 a9 3d
       0.012438951 0.07717769 -0.04526877 0.08278059
000110 77 6a 41 bc 74 55 f7 3c 75 d7 91 bd 3c 98 9d 3d
       -0.011805168 0.030192114 -0.07121173 0.07695052
000120 e0 55 4b 3d 1c b6 9f bd 70 5c a6 bc cf 68 fd ba
       0.049642444 -0.077984065 -0.02030775 -0.0019333604
000130 c2 71 94 3d 78 73 b5 3d 54 c0 27 3b 65 c8 21 3e
       0.0724826 0.088599145 0.0025596814 0.157991
000140 a5 7f cd 3d 6c ed 61 bd 4c dc 2d bd 7f a3 bb 3c
       0.10034112 -0.055158064 -0.04244642 0.02290511
000150 04 c6 7d 3d 9e 5b 02 bd 1e cd 39 bd 48 cb 05 bd
       0.06195642 -0.031825654 -0.04536163 -0.032664567
000160 56 b7 49 3d eb 1e 1d 3e a6 98 8a 3c 9f 55 fd ba
       0.04924711 0.15343826 0.016918492 -0.0019327885
000170 d5 cc c4 3d 4e fd 23 bd 17 01 02 bd ce 88 84 3d
       0.09609381 -0.040036492 -0.03173932 0.06471406
000180 33 73 34 bd 67 67 a7 3d 41 44 ad bc 8c 3f f0 3d
       -0.044055175 0.08174019 -0.02115071 0.117308706
000190 26 66 4b bd 59 ca 20 bd 24 3f 60 3d 87 37 ce 3d
       -0.049657963 -0.039255474 0.054747716 0.10069185
0001a0 10 63 77 bd 7c bf 33 3d 72 fa 81 3d 5d fd 12 3d
       -0.060397208 0.043883786 0.06346597 0.035886157
0001b0 34 9c 3b 3e fc 09 5c bd 58 85 4a 3c a2 9e 46 3d
       0.18321306 -0.05372046 0.012360893 0.048491128
0001c0 28 a7 7d 3d e0 f8 85 bd 89 47 15 3e 23 f3 04 bd
       0.06192699 -0.0654161 0.1457807 -0.032458436
0001d0 3f 29 82 bd ba 9b 4a bd 5c 21 32 3e 0e 6a a6 3d
       -0.06355523 -0.04946492 0.17395538 0.08125697
0001e0 c0 93 77 bb 60 84 bc bd 4c 6a d8 3b ee 55 d6 3c
       -0.0037777275 -0.09204936 0.0066044684 0.026164021
0001f0 dc 97 43 3d da aa 9b 3d 66 29 0d 3d 87 68 e3 3d
       0.047752246 0.07600947 0.03446331 0.111039214
000200 58 50 86 3a bb af a6 3d 6d 56 66 3d 9e f2 41 3e
       0.0010247333 0.08138987 0.056234766 0.18940207
000210 29 c3 1a 3d 99 6d 51 3d c0 97 fc 3c 06 40 0b 3e
       0.037783775 0.05112991 0.030834079 0.13598642
000220 d8 bb 40 bd 95 d2 06 bb 68 4f 55 bc 22 af 87 3d
       -0.04705414 -0.0020572294 -0.01301942 0.06625201
000230 a5 c8 72 bd 03 06 88 3d 29 fe 8d bd d5 86 07 3e
       -0.05927338 0.06641772 -0.06933243 0.13235028
000240 d1 42 22 3c ce 47 46 bc 32 cf 3c 3d 2f f4 92 bd
       0.009903626 -0.0121020805 0.046096034 -0.071754806
000250 c2 ad 97 3d 58 5d 32 bd 14 2b c0 3d 73 f1 30 3e
       0.074061885 -0.04354605 0.093832165 0.17279606
000260 68 77 c2 3d 42 0d ce 3d cc 3d e8 bd 18 3c b8 bd
       0.09495431 0.100611225 -0.11339912 -0.08995837
000270 25 09 b2 3d 96 c0 a4 bc dc 60 92 3d a6 48 ca 3c
       0.086931504 -0.020111363 0.07147381 0.024692845
000280 23 4b 82 3d e9 ad 47 3e 2a 5f 64 bd b6 18 a4 3c
       0.063619874 0.19499935 -0.055754818 0.020031314
000290 ad d7 1b bb 3d 45 05 3e 5a 74 9f bd 6c a8 07 bd
       -0.0023779676 0.13014694 -0.07785864 -0.033119604
0002a0 2f bf 1c 3e 58 a8 a4 b8 7a e2 20 3b f2 8d 13 3d
       0.15307306 -7.851486e-05 0.0024549053 0.03602404
0002b0 9f 0b 64 bc 38 64 f7 bb 74 66 fe 3c d7 8b ff 3d
       -0.013918786 -0.007549789 0.031054713 0.12477844
0002c0 e1 a5 f6 3c 02 47 a9 3e 65 0a 79 bd 7f 9e 1c 3e
       0.030108394 0.33061987 -0.06080093 0.15294836
0002d0 66 65 93 bd 4a a9 d0 bd 83 6a b6 3c 06 a0 1a 3e
       -0.071970746 -0.10188539 0.022267586 0.15100107
0002e0 b2 f5 ea 3d 78 47 00 bd 0c 1e 59 3e d7 71 54 3d
       0.11472644 -0.031318158 0.21202868 0.05186638
0002f0 c8 fa 9b 3d 5d 79 9f bd 6c b1 7a bd c8 78 9d 3b
       0.07616192 -0.0778682 -0.06120436 0.004805658
000300 ee 9e 9d 3d 14 48 28 3d 68 56 17 3e 37 60 2d bc
       0.07696329 0.041084364 0.14779055 -0.010582021
000310 5c 09 1f bd 1f 73 cd bd 83 e4 10 bc b7 dd 87 3d
       -0.038827285 -0.10031723 -0.008843544 0.066340856
000320 c5 01 70 bd 94 95 07 3d fd bd 0e 3d 89 df b6 bd
       -0.058595438 0.033101633 0.034849156 -0.08929355
000330 50 eb 9a bd 3c 4e 3b 3d 21 c5 7c bd 92 5d 7f 3d
       -0.075644135 0.045728907 -0.061711434 0.062345095
000340 db f7 c2 bd b8 dd b0 3c 0a 00 b8 3c 8d f9 c1 bd
       -0.09519931 0.021590099 0.022460956 -0.09471426
000350 3d 8e 06 3e 43 dc be bd b1 d8 c3 3c f4 12 0e 3d
       0.13140197 -0.09319355 0.023907037 0.034686044
000360 76 44 84 bd 93 e6 11 3d 2b ec 63 3d 9c 17 b9 3d
       -0.064583704 0.035620283 0.05564515 0.09037706
000370 d1 5b 18 3e 38 b2 ac bd f7 b2 03 bd 32 a0 00 3e
       0.14878775 -0.0843243 -0.032153096 0.1256111
000380 ec 4f c4 bc a6 83 3d bd e8 13 05 be 0a e0 1d 3d
       -0.023963891 -0.046268128 -0.12995875 0.03854374
000390 e4 e5 cb bd f8 7a 65 3d 16 aa 75 bd d4 18 ce 3d
       -0.099559575 0.056025475 -0.05997666 0.10063329
0003a0 2f c2 8a bc 89 a5 ed bc 52 9b d6 bc eb 15 47 3d
       -0.016938297 -0.029009597 -0.02619711 0.048604887
0003b0 dc 4a 8b bb 6e 8e 0e 3c 76 b6 1c 3c a7 b4 05 3d
       -0.0042508673 0.00870095 0.009564986 0.032642987
0003c0 32 63 10 be 72 e6 69 bc a8 f4 e0 3c 7a 01 0f be
       -0.1410034 -0.014276134 0.027460411 -0.13965407
0003d0 84 85 32 bc b6 56 7c bd b8 a4 bf 3a 20 1e cd bd
       -0.01089609 -0.06160613 0.0014621234 -0.100155115
0003e0 fe 72 33 3c aa fe 04 3e ba 34 0f 3b 65 c7 0f bd
       0.010952709 0.12987772 0.0021851496 -0.035102267
0003f0 11 a9 02 be b3 91 42 3e 18 2f 74 3c 60 7f 66 bd
       -0.12759806 0.19000892 0.014903806 -0.056273818

sequential_1/lstm_2/while/lstm_cell/MatMul f4 [200, 2]
000000 d3 b3 4f bd f3 e8 fd 3c cd 4b ed bc a3 df d3 bd
       -0.050708603 0.030994868 -0.028966809 -0.1034539
000010 2f 32 ce 3d 5f 9f ed bc 99 7c 03 3e a3 83 19 3d
       0.100681655 -0.029006658 0.12840499 0.037479054
000020 93 a9 0e 3e e0 f6 a5 3c 8f b0 fb 3d 9c a9 bc 3d
       0.13931875 0.02025932 0.12289535 0.09212038
000030 8e 93 f4 3c 6f 5b d6 3d 3b ff 2a be 9c e9 64 3d
       0.029855516 0.10466658 -0.16698925 0.05588685
000040 16 cb ec bd 24 b3 09 be 7d b6 5d 3e 89 a0 e9 bb
       -0.11562173 -0.13447243 0.21651645 -0.007129733
000050 f5 d1 8f bd b0 31 29 3d d1 ce 1e 3e 02 e8 a8 3d
       -0.07022468 0.04130715 0.15508582 0.08247377
000060 bf ad bb bd fe 6a e5 3d 9e ec fa bd 42 a8 7b bd
       -0.09163999 0.11202048 -0.122521624 -0.06143976
000070 fc bb d1 3d 24 78 31 3d 72 9a d8 3d 2f 68 c7 bd
       0.10240933 0.043327466 0.10576333 -0.09736668
000080 f5 43 a5 bd 48 76 8d bc 8f 6b 1f 3e d6 30 ff 3d
       -0.080696024 -0.017268315 0.15568374 0.124604866
000090 14 e8 f1 3d e1 98 df 3c 2e e0 59 3d 47 8b a5 3d
       0.118118435 0.027294578 0.05319231 0.08083206
0000a0 38 6b 45 3e 69 05 02 3d a8 b5 ce bc 89 ff 15 3e
       0.19279182 0.03174344 -0.025233105 0.1464826
0000b0 5b 98 ea bd fe 32 c8 3d a0 0f f3 3c 78 d0 87 bc
       -0.11454841 0.09775351 0.029670537 -0.016578898
0000c0 32 d6 d2 bd de 5b 0a 3e 16 f6 5d 3e 3c 60 ad 3b
       -0.10294761 0.13511607 0.21675906 0.005291013
0000d0 82 e5 53 3e fa d8 2a 3e 94 3d c2 bd 64 fa 2a 3e
       0.20693019 0.16684332 -0.09484401 0.16697079
0000e0 d0 9a 0f be f8 5d 21 be 78 34 d1 bd c7 61 ab 3d
       -0.140239 -0.15758502 -0.10215086 0.08368259
0000f0 9e 54 a9 3d 30 1c c5 bc 9f 5e cc bd 70 bf 76 bd
       0.082680926 -0.024061292 -0.09978985 -0.060241163
000100 95 e1 2a 3e 98 26 9c bd 29 3f 22 3e ae de 15 bd
       0.16687615 -0.07624549 0.15844406 -0.036589317
000110 9e 02 48 3d 8b 23 31 3e 0e f1 43 3e 73 27 1e 3e
       0.04883062 0.17298715 0.19134924 0.15444736
000120 f1 05 77 3b 6a 3e 9d 3d d0 5e bd 3c 00 21 d7 bb
       0.003769275 0.0767792 0.0231165 -0.006565213
000130 47 99 1c 3e 30 5a bb bc e7 6b 1a 3e 74 e1 e9 bd
       0.15292846 -0.022870153 0.15080224 -0.11419955
000140 13 75 89 bd e9 6d 14 3e d8 79 78 3d de 9b 71 3e
       -0.06711783 0.14495052 0.060663074 0.23594615
000150 69 b0 12 3e bc e6 85 3d 89 f1 9f 3d 52 2d bd 3c
       0.14325108 0.0653815 0.07809741 0.0230929
000160 46 d6 3f 3e cb 1a 2f 3e 0c 65 60 3d a0 e3 d9 3c
       0.18734083 0.17100064 0.054783866 0.026597798
000170 04 9f 0a bd 45 23 d7 bd 5a 35 96 bd ef 81 ff 3d
       -0.033843055 -0.10504774 -0.07334395 0.12475955
000180 6e eb c3 bd a0 11 cf bb 6c 59 2e be 5f 1e 30 3e
       -0.09566389 -0.0063192397 -0.17026299 0.17199086
000190 74 11 59 3d d6 87 7a bd 51 ff 94 3d 01 14 ae bc
       0.05299516 -0.0611647 0.0727526 -0.021249773
0001a0 9a 32 a1 3d f7 0f 0c 3e f0 cb 43 3e 56 b9 7c 3d
       0.078709796 0.13677965 0.19120765 0.061700188
0001b0 ac b0 51 3d 9c 50 64 bd 8e 5c 22 be 40 f2 db bb
       0.051193878 -0.055740938 -0.1585562 -0.006712228
0001c0 e5 86 08 be 11 cb 16 3d bf 0a 20 3e 8f 8e de bd
       -0.13332708 0.036814753 0.156291 -0.10867035
0001d0 c1 0e 16 3e 01 5f bd bd 54 c3 33 3e 02 53 6e 3d
       0.14654066 -0.09246636 0.1755498 0.05818463
0001e0 fc 30 30 bd a7 19 b7 bd 5c 6d ff 3d 2b f2 30 3e
       -0.043015465 -0.0894044 0.124720305 0.1727988
0001f0 da fa 7d bd 92 91 95 3d 05 6f 04 3e 07 46 f8 bd
       -0.06200681 0.07303156 0.12932976 -0.12122732
000200 8c a3 df bd c9 e5 70 bd 81 39 32 3d 0e 6a 95 3d
       -0.10919866 -0.05881289 0.04351187 0.07295619
000210 48 23 de 3c ce 9d be 3d a7 13 cc bd 10 97 41 3d
       0.027116433 0.093074426 -0.09964686 0.047263205
000220 6d c2 1f 3e f2 d4 8a bd 12 ee 7d bd c7 27 82 3d
       0.15601511 -0.06778897 -0.06199462 0.06355243
000230 a6 61 eb 3d e0 9a 78 bc 71 bb 05 3e 26 62 ff bd
       0.11493234 -0.015173644 0.13059784 -0.12469892
000240 b0 05 2a 3d e3 29 a6 bd 84 db 6f 3d f6 56 d9 3d
       0.04150933 -0.08113458 0.058558956 0.106122896
000250 35 f9 45 3d 07 a6 99 bd 6b de 12 3e b5 06 1a 3e
       0.048333365 -0.0750237 0.14342658 0.15041621
000260 4e 16 88 bd 74 4e 87 3c 83 11 05 be d9 0c 28 3e
       -0.06644879 0.016516902 -0.12994961 0.16411151
000270 a6 e0 85 3d 19 1d 19 3e 29 b6 1c bb 25 ee 28 3d
       0.06536989 0.14952506 -0.0023912287 0.041242737
000280 50 72 07 be 87 85 8b bd 5a 1b 4b 3e 13 0e 73 bc
       -0.132272 -0.06812578 0.19834653 -0.0148348985
000290 88 75 eb 3d ab 76 c7 3d 9d 18 a9 3c 05 6a 98 3d
       0.11497027 0.09739431 0.02064162 0.074420966
0002a0 2c 06 fe 3d 7f 56 1b 3e 15 e0 23 bd cc 1e 2a 3e
       0.12403521 0.15169714 -0.040008623 0.1661331
0002b0 fb 82 77 3d 52 a1 c8 3b 00 e8 f1 39 fc 5f 1a bd
       0.060427647 0.0061227465 0.00046139956 -0.037689194
0002c0 20 4a a1 bd b0 11 0c bc 20 b9 25 3d 01 3a 9b bd
       -0.07875466 -0.008549139 0.040459752 -0.07579423
0002d0 57 84 12 3e 1c 68 99 3d 70 e7 54 3d cd 06 eb bd
       0.14308296 0.074905604 0.05197853 -0.114759065
0002e0 aa 5f f7 bd 55 13 fa 3d 69 ed 47 3e 20 85 fe 3d
       -0.12078793 0.122107185 0.19524159 0.12427735
0002f0 e7 13 e7 3c 0c 8a bb bd 39 a6 18 3e 40 1f 12 bc
       0.028207732 -0.0915719 0.14907159 -0.008918583
000300 16 1a ad 3d 32 44 5d bd e6 47 2e be ec 03 00 bd
       0.08452241 -0.054020114 -0.17019615 -0.03125374
000310 b8 26 39 3d d1 77 1d 3e b5 46 11 3e 14 a1 3f 3d
       0.04520294 0.15377738 0.14187129 0.046784475
000320 63 8a 0f be a3 8e 51 3d f1 f0 15 3e b0 09 34 3d
       -0.14017634 0.05116142 0.14642693 0.04395455
000330 a1 64 5d 3e b1 4d bb bd 1e 9c c5 bb 64 3e 33 3e
       0.21620418 -0.09145678 -0.0060305735 0.17504269
000340 12 fd 15 be e4 92 22 bd bb 11 c9 3c 68 1b 26 be
       -0.1464732 -0.039690867 0.024544587 -0.16221392
000350 55 3a 05 3e 91 19 ff bd 64 69 0d bd 39 ea 81 bd
       0.13010533 -0.12456048 -0.034524336 -0.063435026
000360 e4 3e 23 3d 2b 59 c4 bd 83 73 94 3d 32 8b 5d 3e
       0.0398549 -0.0958732 0.072485946 0.2163513
000370 08 1e 04 3e 79 56 15 bd f1 53 3f 3e 51 a6 08 3e
       0.12902081 -0.03645942 0.18684365 0.13344695
000380 44 7d 22 bd 7d 4d ec bd fd 13 1d be 80 3f f0 bb
       -0.039670244 -0.11538217 -0.15339656 -0.0073317885
000390 69 3d 1f 3e 21 a6 dd 3d 0e 49 73 3d 8e 87 59 3e
       0.1555077 0.10822702 0.059395842 0.21243116
0003a0 94 76 d5 bd b4 f2 62 3d 80 89 a6 bb 4a c6 f2 bd
       -0.104230076 0.05540724 -0.0050823092 -0.11854227
0003b0 59 ee a6 3d 83 6a 3e 3d 53 fb 04 3e d6 17 4a 3c
       0.0815093 0.046488296 0.12986498 0.0123347845
0003c0 42 cd dc 3c 24 b5 5c be 2e 1e 00 be 9d b0 8c bd
       0.026953343 -0.21553475 -0.12511513 -0.06869624
0003d0 60 2d d0 3b 66 80 15 be a1 a2 8d bd d8 3e 83 bd
       0.0063530654 -0.14599761 -0.069157846 -0.06408471
0003e0 c0 b6 d1 3d 46 a3 c8 bd 14 06 6c bc b8 59 4e 3e
       0.10239935 -0.09796767 -0.014405746 0.20151412
0003f0 67 20 dd bc 64 ce 60 3e c1 be a2 3d 1a 7c 53 3e
       -0.02699299 0.21953732 0.0794654 0.2065281

sequential_1/lstm_3/lstm_cell/BiasAdd/ReadVariableOp/resource1 f4 [200]
000000 fa e3 23 3d b0 f5 84 3d bd 65 e3 bb bb 0e 5b 3d
       0.040012337 0.06492174 -0.0069396184 0.053480845
000010 1a 33 43 3d fd b6 fc bb be f5 58 3d b4 ea 69 3d
       0.047656156 -0.0077122436 0.052968733 0.057108596
000020 ac e8 4a bc 98 46 0a bc af b7 5d 3c 00 00 00 00
       -0.012384575 -0.008439682 0.013532563 0.0
000030 b0 cf a3 bc d9 8c 09 bc db e3 6a bc 00 00 00 00
       -0.019996494 -0.008395397 -0.014336552 0.0
000040 bd 0b e6 3b 00 00 00 00 33 45 ff 3c 17 45 7d bc
       0.0070204423 0.0 0.031160926 -0.015458367
000050 6d 72 5c 3d 00 00 00 00 1b f2 5a 3d fe 5e c7 3c
       0.053820062 0.0 0.053453546 0.024337288
000060 00 00 00 00 f7 6f 68 3d 00 00 00 00 d6 1f ec ba
       0.0 0.056747403 0.0 -0.0018014859
000070 00 00 00 00 0c 31 80 3c 00 00 00 00 00 00 00 00
       0.0 0.015648387 0.0 0.0
000080 00 00 00 00 00 00 00 00 d6 96 89 3d 00 00 00 00
       0.0 0.0 0.06718223 0.0
000090 00 00 00 00 e1 5a 59 3d ad 79 58 3d 13 32 00 bc
       0.0 0.053065185 0.052850414 -0.007824439
0000a0 c9 90 5f 3d 8a b7 a9 bb 00 00 00 00 ed 6f 74 3d
       0.054581437 -0.0051793503 0.0 0.059677053
0000b0 6c 47 61 3d 00 00 00 00 00 00 00 00 02 7f 20 bc
       0.054999754 0.0 0.0 -0.009795906
0000c0 5d ab 47 3d 07 8a 0d bc 26 b1 83 3f 33 c4 88 3f
       0.04874741 -0.008638865 1.0288436 1.0684875
0000d0 e5 50 7e 3f 3d 63 87 3f 3e cc 86 3f 92 54 7e 3f
       0.99342185 1.057716 1.053108 0.99347794
0000e0 f8 a8 86 3f b6 fd 87 3f 52 e7 7c 3f f1 e7 7d 3f
       1.0520315 1.0624301 0.98790467 0.9918204
0000f0 5e 08 6c 3f 00 00 80 3f bc 26 7b 3f 95 bf 7d 3f
       0.9220027 1.0 0.9810598 0.99120456
000100 21 89 7c 3f 00 00 80 3f c8 d8 81 3f 00 00 80 3f
       0.9864674 1.0 1.0144281 1.0
000110 0f c7 84 3f 49 cb 7b 3f a7 3a 87 3f 00 00 80 3f
       1.0373248 0.98357064 1.0564774 1.0
000120 3d 18 88 3f ba 67 82 3f 00 00 80 3f 37 a8 87 3f
       1.0632397 1.0187905 1.0 1.059821
000130 00 00 80 3f 00 00 80 3f 00 00 80 3f 09 34 80 3f
       1.0 1.0 1.0 1.001588
000140 00 00 80 3f 00 00 80 3f 00 00 80 3f 00 00 80 3f
       1.0 1.0 1.0 1.0
000150 7c 50 89 3f 00 00 80 3f 00 00 80 3f 86 94 86 3f
       1.0727687 1.0 1.0 1.0514076
000160 1e e6 87 3f 6e 26 7e 3f 0a 7c 87 3f 7b 2c 7c 3f
       1.0617101 0.9927739 1.0584729 0.9850537
000170 00 00 80 3f 4a 69 86 3f f8 f9 85 3f 00 00 80 3f
       1.0 1.0500882 1.046691 1.0
000180 00 00 80 3f 1a 29 7f 3f 96 dd 85 3f a9 07 7e 3f
       1.0 0.9967209 1.0458248 0.9923044
000190 bc 81 48 3d 43 a5 87 3d 11 5b 08 bc 39 a8 2f 3d
       0.04895185 0.06623318 -0.008322493 0.04288504
0001a0 6a 8b 19 3d 39 03 1d bc 65 06 33 3d 30 9d 4d 3d
       0.03748647 -0.009583288 0.04370727 0.050198734
0001b0 e2 4f 76 bc a0 f2 27 bc d3 77 0e bc 00 00 00 00
       -0.015033694 -0.010250717 -0.0086955605 0.0
0001c0 3f ab d0 bc 7c 5b 22 bc 4d 71 91 bc 00 00 00 00
       -0.025472282 -0.009909507 -0.017754221 0.0
0001d0 2e 8c ce 3c 00 00 00 00 b2 74 15 3d 2e d6 9b bc
       0.025213327 0.0 0.036488242 -0.019023027
0001e0 27 3f 27 3d 00 00 00 00 30 1b 2b 3d 6f 1a b8 3c
       0.04083171 0.0 0.041773975 0.022473542
0001f0 00 00 00 00 5c f7 40 3d 00 00 00 00 dd b3 c3 bb
       0.0 0.0471109 0.0 -0.005972369
000200 00 00 00 00 b8 4c 13 39 00 00 00 00 00 00 00 00
       0.0 0.00014047592 0.0 0.0
000210 00 00 00 00 00 00 00 00 28 b0 19 bc 00 00 00 00
       0.0 0.0 -0.009380378 0.0
000220 00 00 00 00 20 46 31 3d 9a 1f 3b 3d 06 40 20 bc
       0.0 0.043279767 0.045684434 -0.009780889
000230 26 21 39 3d d6 63 71 bc 00 00 00 00 22 89 5d 3d
       0.04519763 -0.014733275 0.0 0.05408586
000240 53 f6 40 3d 00 00 00 00 00 00 00 00 8f 6d 52 bc
       0.047109913 0.0 0.0 -0.012843504
000250 7e 49 27 3d f1 43 27 bc 7b b2 21 3d 79 74 87 3d
       0.040841572 -0.01020907 0.039476853 0.06614012
000260 58 7e e3 bb 84 8e 5a 3d 21 6b 45 3d 1e 12 fd bb
       -0.0069425516 0.05335857 0.04819787 -0.007723107
000270 6f c8 58 3d 01 17 69 3d 3d 10 4b bc 73 3b 0a bc
       0.052925523 0.056906704 -0.012394008 -0.008437025
000280 e1 77 58 3c 00 00 00 00 91 ae a3 bc de 8d 09 bc
       0.013212175 0.0 -0.0199807 -0.00839564
000290 50 f0 6a bc 00 00 00 00 6f 7e 03 3c 00 00 00 00
       -0.0143395215 0.0 0.00802575 0.0
0002a0 3b 1d 03 3d 9f 01 7d bc 55 a1 58 3d 00 00 00 00
       0.0320103 -0.015442281 0.052888233 0.0
0002b0 d8 d7 5a 3d 1d 28 c0 3c 00 00 00 00 2d d3 69 3d
       0.0534285 0.023456628 0.0 0.05708616
0002c0 00 00 00 00 81 fc ee ba 00 00 00 00 b3 e1 83 3c
       0.0 -0.0018233211 0.0 0.016098833
0002d0 00 00 00 00 00 00 00 00 00 00 00 00 00 00 00 00
       0.0 0.0 0.0 0.0
0002e0 4e 96 88 3d 00 00 00 00 00 00 00 00 72 27 59 3d
       0.06669293 0.0 0.0 0.053016134
0002f0 f5 44 5c 3d cb 29 00 bc 4d a6 60 3d 51 25 a4 bb
       0.0537767 -0.007822464 0.054846097 -0.0050093313
000300 00 00 00 00 87 dc 70 3d 9f 80 5c 3d 00 00 00 00
       0.0 0.05880406 0.0538336 0.0
000310 00 00 00 00 f9 6d 20 bc 5b dd 3e 3d 10 9c 0d bc
       0.0 -0.0097918445 0.04659782 -0.008643165

sequential_1/lstm_3/while/lstm_cell/MatMul_11 f4 [200, 50]
000000 51 2f 72 3c 32 bc 24 bd ae 99 ba 3d ee dc a9 3d
       0.014781789 -0.04021854 0.09111343 0.08294092
000010 e7 22 12 bd dc 9e 90 3c 60 da 8c bb be a9 8b bd
       -0.035677817 0.017653875 -0.0042984933 -0.06819485
000020 7a 16 58 bd da 60 57 3d 4d fc 15 3d 5c 49 8e 3d
       -0.05275581 0.0525826 0.036617566 0.06947586
000030 e0 27 1e 3d e0 a4 b0 bd 4a 60 cd bd e0 8c 91 3b
       0.038612247 -0.086251974 -0.10028131 0.0044418424
000040 4e 8c 7d 3d 38 4d 00 3d 98 af e5 3b 50 e4 3e bb
       0.061901383 0.03132364 0.007009458 -0.0029127784
000050 df cc e7 3b ce 19 bb bc e8 f1 22 bd cf 01 92 3d
       0.007073983 -0.022839453 -0.03978148 0.07129251
000060 e8 60 e1 3d b0 40 a2 3d 30 4f cb ba ae 78 53 3e
       0.110048115 0.079224944 -0.0015511271 0.20651504
000070 b4 6f 39 bd be 40 91 bb a5 ad 58 3d f0 c6 c6 bc
       -0.045272544 -0.0044327667 0.052899975 -0.024264783
000080 d0 1d 90 3c ec c4 f7 3d 7c d5 d1 ba 80 4a 79 3b
       0.01759234 0.12098107 -0.0016009058 0.003803879
000090 98 0c 93 bd be 76 42 bd 00 91 d7 bd 3f f9 6a bd
       -0.071801364 -0.047476523 -0.105257034 -0.057366606
0000a0 13 c3 0c bd ec 10 a8 bd f0 46 6a 3b 16 b3 d9 3d
       -0.034365725 -0.082063526 0.0035747848 0.10629861
0000b0 28 cb ab ba 13 1a 16 bd a8 bc 4c 3d 2e c4 51 bc
       -0.001310681 -0.03664596 0.049984604 -0.012803121
0000c0 94 06 37 bd 1d c3 e8 3d 86 f2 86 3d 56 69 ce bc
       -0.044684008 0.1136534 0.065892264 -0.025196712
0000d0 4d 65 d4 bd 7a e4 b9 bc 50 89 8d bd 3b 67 31 bd
       -0.10370884 -0.022691954 -0.06910956 -0.04331134
0000e0 9e f7 b9 3d 5d bb 60 3d 35 f8 00 3b 30 f9 3f bd
       0.09080432 0.054866184 0.0019679193 -0.046868503
0000f0 6a b1 5d bb c0 15 f4 bc b8 1e 34 bd 0a 66 c0 bc
       -0.003382767 -0.029795527 -0.04397461 -0.023486156
000100 88 29 3e 3d 6e 8f 2f bc cd 56 a3 bd a6 d8 a5 3d
       0.046426326 -0.010715349 -0.0797554 0.08097963
000110 ab af 6d bc a7 ac 04 3d da a6 e2 bd b1 79 71 3d
       -0.014507215 0.032391217 -0.11066981 0.058953945
000120 74 74 e3 3d cf d4 11 3e 09 78 84 bd 47 c6 c7 bd
       0.11106196 0.14241336 -0.064682074 -0.09754615
000130 0c ae cb 3c 5c 84 18 bc 9a 8b eb 3d 7e 68 63 bd
       0.024863265 -0.009308901 0.11501236 -0.055519573
000140 9f 9e 10 3e f1 ce 8b bc c9 fb 06 3c cc 6e ba bc
       0.14123009 -0.01706645 0.008238741 -0.02275791
000150 6f 9e 1c 3d 4c 64 2a 3d d0 98 97 3c 40 76 dc ba
       0.03823703 0.041599557 0.018505484 -0.0016819909
000160 93 18 a4 3c 16 86 a2 3d fb a3 a5 3d 2d 7f 55 3d
       0.02003125 0.07935731 0.080879174 0.052123237
000170 09 90 05 bd d1 57 ab 3d 7e 22 22 3e 63 7e 8c 3c
       -0.032608066 0.08366359 0.1583347 0.01715011
000180 dc 61 69 3d d6 de 74 bc 37 bd 92 3d 06 37 8e bd
       0.05697809 -0.014945706 0.07164996 -0.06944089
000190 2f 56 a0 3c 12 86 86 39 75 da 92 3d fe e8 78 bd
       0.019572346 0.00025658362 0.071705736 -0.060769074
0001a0 41 ee c4 3b 26 4c aa 3d 72 49 56 3e f9 f0 79 3d
       0.0060098474 0.083153054 0.20926455 0.061020825
0001b0 ab ba bb 3a 5b 51 c2 3d c7 ec 88 bd 80 47 fe 3b
       0.0014322599 0.094881736 -0.06685787 0.0077599883
0001c0 b1 de 95 bd 86 de 8b 3c a6 df 69 bc 73 52 e7 3c
       -0.07317866 0.01707388 -0.014274513 0.028237557
0001d0 12 a8 12 3d 80 56 9a bd 50 89 e9 3d ed 96 0b bd
       0.035804816 -0.0753603 0.114031434 -0.03407948
0001e0 ab 3a d4 bc 21 32 b3 3c c8 45 6c bc 60 d7 f2 bb
       -0.025906881 0.02187449 -0.014420934 -0.0074109286
0001f0 17 33 8b bc 17 39 02 3d a9 0d 9b bd 6c 45 2a 3d
       -0.016992135 0.031792726 -0.07570965 0.041570112
000200 4e 9b ee bc a7 ab ab bd 21 1c b7 3d c1 eb 03 be
       -0.02912679 -0.083823495 0.08940912 -0.12882902
000210 35 b4 7c 3b 55 9a b3 3d 08 41 99 3d a0 94 0c bd
       0.003855956 0.08769671 0.07483107 -0.034321427
000220 ee 5d 56 ba 28 db c4 3d 24 2f bc 3b 2e 3b 87 3c
       -0.0008177449 0.09612113 0.0057429243 0.016507711
000230 ea 36 a6 3c a2 74 54 bd 59 5f 99 bd 5d 98 4d bd
       0.020289857 -0.051869042 -0.07488889 -0.050194133
000240 e0 b6 10 3d b4 f8 37 bb 25 cd a7 3c ef d8 c5 bd
       0.035330653 -0.0028071823 0.020483563 -0.096605174
000250 7d fa 1d bd f0 20 98 bd 02 c0 d1 3c f9 68 64 3d
       -0.038568962 -0.07428157 0.025604252 0.055764172
000260 e3 17 2b 3d 81 b6 c6 bb ec 01 c1 3d 98 07 e4 bc
       0.041770827 -0.0060642366 0.09424195 -0.027835652
000270 6c cc 3d 3d c2 77 01 3e 9e 91 53 bd 7a cc 73 3d
       0.04633753 0.1264334 -0.051652543 0.059521176
000280 51 5d 46 3d 3b a3 68 3d 4d 87 a4 3d 33 45 20 3d
       0.048428837 0.056796294 0.08033619 0.039128494
000290 0f b4 7c bd 74 d0 53 3a a7 de 75 bc 5b 62 61 3d
       -0.061695155 0.0008080073 -0.015006698 0.05502544
0002a0 22 a6 b0 3c 75 02 53 3d db 71 5c 3d 4e 62 d6 3d
       0.021563593 0.051516015 0.05381952 0.10467969
0002b0 2c fc 17 3e e3 e0 23 3e 36 44 1f 3d c1 10 b0 3d
       0.1484229 0.16003756 0.03888341 0.085969456
0002c0 e4 cd 14 3d e7 e3 8f 3c c8 f9 01 b9 55 05 1b 3e
       0.036329165 0.017564727 -0.0001239545 0.15138753
0002d0 04 6b 25 bd 35 ff 2e 3e 80 49 38 bb fd e1 52 bd
       -0.04038526 0.17089541 -0.0028119981 -0.05148505
0002e0 be fa c4 3d f5 89 d5 3d 00 b4 00 bd 86 73 9f 3c
       0.09618138 0.10426704 -0.03142166 0.019464266
0002f0 64 5a 11 3e d5 8b c1 bd cb bd cf 3b 46 d3 01 3e
       0.14194638 -0.09450499 0.0063397638 0.1267825
000300 6c 76 9b bd 64 b3 43 3d 67 d9 31 3e 5d ed 02 3e
       -0.075909466 0.047778502 0.17368089 0.1278586
000310 9d 36 95 3d 68 c0 13 bd d6 4f 40 3e b6 15 21 3d
       0.07285807 -0.036072165 0.18780455 0.039327346
000320 a1 4f 43 3d da 18 de 3d 7b 3b 7e 3d 7d 73 de 3d
       0.047683362 0.10844584 0.062068444 0.108618714
000330 26 0e 3a 3d f8 fd 3c bc 36 8f 56 3d aa 68 ee 3c
       0.04542365 -0.01153516 0.05238267 0.029102642
000340 34 ca 5b 3d 9c ce bc bd 8d d1 60 3d c2 45 96 3b
       0.053659633 -0.09219095 0.054887343 0.0045859525
000350 fa 03 0d 3e ee b7 b8 3c c5 7f 2f bd a4 4f 31 3d
       0.13771048 0.022548642 -0.04284646 0.04328884
000360 bc 5f 8a 3d 8a cb f5 bd 0d 51 14 bb 3b 07 15 3d
       0.06756541 -0.120017126 -0.0022631318 0.03638385
000370 89 8b 51 3e d6 37 f3 3d 8e a3 65 3d 04 25 92 3d
       0.20463385 0.11875884 0.05606418 0.071359664
000380 24 9f 29 3d 48 96 82 3d ab 13 87 3d 2e b7 27 3d
       0.041411534 0.0637632 0.06595548 0.04094618
000390 6b 25 1d 3d b7 f2 c2 3d f9 31 ed bd 13 14 08 be
       0.038365763 0.095189504 -0.11581797 -0.13288908
0003a0 bf 81 f5 bc 32 42 12 bd b2 49 b5 3d c2 fa 02 3e
       -0.029969094 -0.03570766 0.08851947 0.12790969
0003b0 63 3a 93 3b a2 92 6f 3d 83 30 67 3d 02 63 09 3e
       0.004493044 0.05848945 0.05644275 0.13416675
0003c0 7a 89 4a 3d 7e e1 ac bd a8 cf 30 bd 74 94 57 3d
       0.049447514 -0.08441447 -0.043166786 0.05263181
0003d0 d1 63 8b 3d a1 b3 c2 3d 6d 83 58 3d 5c 62 34 3e
       0.06806148 0.09506918 0.052859712 0.17615646
0003e0 2e e8 85 3d f0 53 e6 bd f1 03 e5 3d c3 2f 22 3d
       0.065384254 -0.112464786 0.111823924 0.03959633
0003f0 c1 45 11 be ee a6 9b bd d7 d2 c1 bd 14 7d 8d bd
       -0.14186765 -0.07600199 -0.09464043 -0.069086224
